log/lightning_logs/version_0/checkpoints/epoch=3-step=4.ckpt (torch, 34792 bytes, 41 tensors)

model.rnn_cell.gleak f4 [16]
00000000: ee67 d53d c0b4 1f3e 27b1 513f f2b7 4c3f
00000010: f9f0 443f e491 4a3f 8e60 ad3d 59b1 b33c
00000020: ed77 863e 8ce5 463f 483f 863e 57aa 253f
00000030: 545d 183e 3794 563f ce35 543f 41ac 913e
0.10420214 0.15596294 0.8191094 0.7996818 0.76930195 0.7912886 0.08465682 0.021935152
0.2626337 0.7769401 0.26220155 0.6471304 0.14879352 0.8381991 0.828946 0.28451732

model.rnn_cell.vleak f4 [16]
00000000: 2299 0c3c a899 24be ae3e 40be 658e a9bd
00000010: 590e 45be 591e 30be 4f76 19be f08c 46be
00000020: 1ed3 ffbd 18d6 323e 879d e93d 8800 053e
00000030: b1e2 2ebe dcca f7bd 8c79 7cbd b1fd 95bd
0.008581432 -0.1607424 -0.1877391 -0.08279113 -0.19243754 -0.17199077 -0.14986537 -0.19389701
-0.12491439 0.17464483 0.11406999 0.12988484 -0.17078663 -0.12099239 -0.061639354 -0.073237784

model.rnn_cell.cm f4 [16]
00000000: d99b 013f 0e38 063f d8a0 eb3e 8721 033f
00000010: da57 013f a34f da3e 14b1 013f ead9 0a3f
00000020: ef44 0b3f f4e5 ef3e 1c09 f13e 2483 f83e
00000030: c8ba e23e 95d1 033f 093d e33e 42d7 e93e
0.5062843 0.5242928 0.46021152 0.51223034 0.50524676 0.42638883 0.50660825 0.5423876
0.5440206 0.46855128 0.47077262 0.48537552 0.44283128 0.5149167 0.44382504 0.4567204

model.rnn_cell.sigma f4 [16, 16]
00000000: 361e af40 74ca d540 3cda b840 d5bc b140
00000010: dbf5 c040 58aa d840 f6bb 9640 b910 7740
00000020: b1db 9d40 249a f340 5e03 fb40 555d 8f40
00000030: 965a cd40 3c05 7d40 7d2b 9040 5e11 c040
00000040: 6227 ca40 9031 6e40 6488 c640 776c f040
00000050: a036 be40 92b1 9f40 aeec 5a40 face ae40
00000060: 6d7e 9940 5e54 7740 4a4b de40 f33d af40
00000070: 5954 ae40 b36d f540 1bec ab40 b994 d240
00000080: b81d d840 1ba7 d540 7277 8a40 c3d1 8a40
00000090: 41af fd40 0148 f440 ac31 6e40 5b25 ed40
000000a0: 9d3d 9240 9ad1 b740 ced8 ab40 c213 ad40
000000b0: 7035 d640 90cc e640 6cf6 9140 c288 c640
000000c0: d59b 6340 7bb9 b740 909c 9040 2e9e 4940
000000d0: 8dd4 9440 ae3e f140 7352 bd40 eef0 5d40
000000e0: 022e c140 6014 a640 a0df 6840 e079 7f40
000000f0: aefc aa40 beea 6740 5e63 d040 2f8c be40
00000100: e5e3 cc40 4085 df40 67be 9440 2cc8 b340
00000110: 613f 7640 dc5f ef40 3437 e940 4163 5540
00000120: 4f03 e340 849e 4540 bbcc ad40 013f c240
00000130: 06d9 8d40 6eab 9940 bed4 af40 06f0 d540
00000140: 162d fe40 7ee4 fd40 772c e040 d85b 9b40
00000150: 5995 5540 b8b8 6940 896b 5f40 c3fa b540
00000160: 262b 8f40 877f 9840 cee0 4e40 5c19 8940
00000170: c7ff b840 5865 9840 f4a3 e240 c587 fa40
00000180: 353d c240 a9eb 8540 e1c5 f340 339f 6e40
00000190: 09e6 ed40 0869 b040 c1ca 5940 e664 af40
000001a0: e81c 7440 58bb 7040 6904 9c40 b4d4 5240
000001b0: 855e 6240 d5c0 f540 e58c ea40 7a34 d140
000001c0: d48e 5e40 cc66 c540 71ec c040 0987 db40
000001d0: 7df9 f440 78b6 a940 bc44 fd40 0dce bf40
000001e0: e7d4 ad40 36e4 da40 688d f840 aa5f c740
000001f0: 4454 f840 c1be b040 4423 5340 a191 d740
00000200: a770 e440 89ad fa40 ad0f 4740 2d32 4b40
00000210: dff3 d540 606c 9440 a15b f240 8c34 8240
00000220: 5631 c340 2f3d fe40 3388 9940 38c5 fe40
00000230: 1c66 c440 1440 e940 9674 f240 f6cd ea40
00000240: d2cf c340 047c d840 450e 9740 20a1 d140
00000250: fd31 9640 b6fe cf40 b23a 8340 6388 8940
00000260: 77b6 a540 cad1 bd40 01f1 be40 e061 b940
00000270: 6c7c c540 bfb0 4e40 d61b 7d40 f9f6 8a40
00000280: aa82 6040 e907 9940 e21b fa40 ee9c 9940
00000290: 9ba4 5d40 d44e 7240 07a0 c940 c4e6 4d40
000002a0: 38c2 de40 d6c6 b240 6a6b 4740 01d1 fc40
000002b0: 40b2 6040 28fc f840 b7a8 ef40 87c6 5740
000002c0: 4abd 8840 10f9 b540 f94e 7a40 412d f840
000002d0: 1050 d140 3b01 7a40 f534 a040 96a0 9b40
000002e0: 7c3d eb40 3d52 ad40 9b8e 8d40 6df7 6b40
000002f0: 2414 5e40 82c6 ac40 6309 9d40 cfc5 6940
00000300: e460 a840 7343 e140 70b4 9940 6e22 6740
00000310: a3d3 c940 7a1d 6040 b520 c140 c61a 9d40
00000320: a5e4 e340 0097 6740 0283 ae40 84df f440
00000330: 1032 f540 60c9 f040 c724 bf40 40ee 9f40
00000340: 547f 8440 bd06 6840 6648 8e40 83c7 cb40
00000350: 1ada 7440 f6fc a240 9892 9c40 db6b 4440
00000360: ca3d bb40 d478 c040 85a6 5e40 ecf0 a940
00000370: 905e d940 e2d5 9e40 9a54 b640 88c7 9d40
00000380: 4c59 7940 a8a5 9640 6407 af40 946a 6940
00000390: b915 7240 2349 6740 10c9 a440 c768 9840
000003a0: 9645 4040 806d dc40 cbb3 a040 25a5 9d40
000003b0: db2b b840 c019 f240 3ed0 e240 30b1 8d40
000003c0: caa6 ed40 236d 5340 cb3a c440 de6b 8c40
000003d0: 44f7 d440 c024 c140 8e64 d440 2dff 8e40
000003e0: 121f d140 667b 4240 3ae8 d840 7645 8f40
000003f0: ff94 be40 9cb0 d440 a6aa 5940 ee86 7640
5.472438 6.6809635 5.77664 5.554301 6.0300117 6.770794 4.7104445 3.8603957
4.933068 7.612566 7.844161 4.480143 6.417308 3.9534445 4.5053086 6.00212
6.3173075 3.721775 6.2041492 7.5132403 5.944168 4.990426 3.4206958 5.4627657
4.796683 3.8645244 6.9466906 5.476312 5.4477963 7.669641 5.3725715 6.5806546
6.753628 6.6766486 4.3270807 4.3381057 7.9276433 7.6337895 3.7217817 7.41081
4.570021 5.744336 5.3702154 5.408662 6.694023 7.212471 4.561331 6.204194
3.5563862 5.7413917 4.5191116 3.1502795 4.650946 7.5389013 5.9163146 3.4678302
6.036866 5.189987 3.638649 3.9918137 5.3433447 3.6237025 6.51213 5.9546123
6.402819 6.985016 4.6482425 5.618185 3.8476183 7.4804516 7.2879887 3.334183
7.094154 3.0878 5.4312415 6.070191 4.432742 4.8021765 5.4947195 6.6855497
7.9430037 7.934142 7.005428 4.8549614 3.3372405 3.6518993 3.4909384 5.6868606
4.474017 4.7655673 3.232471 4.2843456 5.781223 4.762371 7.082514 7.8290734
6.0699716 4.185017 7.617905 3.7284667 7.4343305 5.512821 3.403 5.4810667
3.8142643 3.7614346 4.8755383 3.2942324 3.537019 7.679789 7.329699 6.537656
3.4774675 6.1687984 6.0288625 6.860234 7.655455 5.303524 7.9146404 5.9939027
5.432239 6.840358 7.7672615 6.2304277 7.7602863 5.5232854 3.2990274 6.736527
7.1387515 7.8336835 3.1103318 3.1749375 6.6860194 4.6382294 7.573685 4.0689144
6.0997725 7.9449687 4.797876 7.9615746 6.1374645 7.289072 7.5767317 7.3376417
6.1191187 6.7651386 4.720492 6.5509186 4.693602 6.4998426 4.100915 4.297899
5.1785235 5.931859 5.9669194 5.7931976 6.171438 3.2295377 3.954824 4.342648
3.507975 4.7822156 7.8159037 4.8004065 3.4631717 3.7860613 6.3007846 3.2172098
6.9612083 5.586772 3.115931 7.900513 3.5108795 7.780781 7.489345 3.3714921
4.2731066 5.686653 3.91107 7.755524 6.5410233 3.906325 5.0064645 4.863353
7.3512554 5.416289 4.423658 3.6869767 3.4699793 5.399232 4.907396 3.6526983
5.2618275 7.0394835 4.803276 3.6114764 6.3070846 3.501799 6.0352426 4.9095182
7.1216607 3.6185913 5.453492 7.6522846 7.662361 7.524582 5.9732394 4.9978333
4.140543 3.6254113 4.4463377 6.3681045 3.8258119 5.093379 4.8928947 3.069083
5.8512926 6.0147495 3.4789135 5.3106594 6.7927933 4.9636087 5.6978273 4.930607
3.8960752 4.7077217 5.469652 3.64713 3.7825758 3.613839 5.149544 4.76279
3.0042472 6.8883667 5.0219474 4.9264092 5.7553535 7.5656433 7.08792 4.4278793
7.42661 3.3035362 6.132177 4.3881674 6.655184 6.035736 6.6372747 4.4686494
6.535043 3.0387816 6.778348 4.477229 5.955688 6.646559 3.4010406 3.8519855

model.rnn_cell.mu f4 [16, 16]
00000000: ae68 343f f147 d03e ba5d f13e 6846 123f
00000010: 6ce0 033f b098 1a3f ca5d 1b3f daf2 433f
00000020: d46d f33e 06d1 f23e 8842 243f 0f03 f13e
00000030: 2928 fa3e ae5f e83e 53d0 a43e eccd eb3e
00000040: 18f7 253f 3a58 fa3e 6e7b bb3e 3b9e e83e
00000050: 82db 2b3f 3ce2 1a3f 16e7 be3e 001a b93e
00000060: 8ce1 1f3f d869 253f 45d0 cb3e 7ed4 153f
00000070: f6b5 213f b79a 1a3f 2343 b73e f604 373f
00000080: c635 2d3f 01d3 133f 0352 443f 7073 b03e
00000090: 5e8f 393f 68fe 353f bbc2 1d3f 905e 1c3f
000000a0: 4049 143f e8dc a63e 9f9f a43e 763c 3c3f
000000b0: a2b6 023f c248 ea3e 8601 053f 60dd 383f
000000c0: 696d 303f f8fd 3e3f 464e b53e 30ae 183f
000000d0: 7e48 463f 9a73 283f fab2 0c3f 1285 ac3e
000000e0: 6041 4b3f 9755 293f 8bf1 e23e 0a5e 2a3f
000000f0: 65eb 113f d266 483f f23d 0f3f 6aae 053f
00000100: ba13 393f 87d4 023f 243e 453f a6bf e33e
00000110: deb2 b13e d2ea c33e d08f 353f 8ab4 af3e
00000120: 6c27 193f 3814 093f 235b 353f 7b64 be3e
00000130: 2a14 283f 6111 163f fd05 f53e d6e0 133f
00000140: 61e9 b03e f402 1f3f 5b22 293f 775c 363f
00000150: e0ce 1a3f dda3 a53e 56a0 323f 1cd8 1c3f
00000160: e7d2 013f 5883 e33e 9ad3 413f a38a 3f3f
00000170: c024 0c3f e7e4 cb3e 2e9e 263f a8c0 153f
00000180: 8f3e d33e 949c 253f ed3e a23e e6b4 483f
00000190: 899c 2f3f a6d7 2a3f 888c 2d3f c43e 393f
000001a0: 77b0 9b3e 54cf d13e af17 b23e 7d2b b43e
000001b0: b067 cf3e ff3f 193f 8c4a b13e c121 f73e
000001c0: 2fa0 4c3f ae11 0e3f 0d67 293f f434 e83e
000001d0: b7e4 c73e 4c26 ae3e 2572 2b3f 61ea d63e
000001e0: 92be e33e 9921 df3e 1702 0f3f 5d3e a43e
000001f0: 907c 4a3f c48a 193f 1977 e83e d69e ef3e
00000200: e808 ec3e 58df a83e 9c2d 323f 8a5b 463f
00000210: 1852 0d3f 66e6 b63e a952 1a3f 868e 1f3f
00000220: 8444 273f 4e98 413f 03be 2d3f b6f8 3f3f
00000230: 0548 cf3e 32e2 353f 9883 1a3f 7655 b73e
00000240: 1ccc 3a3f 22d3 cc3e f692 dd3e c65a ab3e
00000250: 1154 293f 6007 b03e f904 f73e 4823 483f
00000260: b6ec 063f eaed ad3e c14d dd3e 600d 1c3f
00000270: 4db1 bd3e deeb ec3e 0e5a db3e d291 0c3f
00000280: 40d6 2e3f 57ec 1a3f 506d 3d3f 939b eb3e
00000290: 1c0d 1c3f afda 3b3f 42f4 d53e a54b f33e
000002a0: 82ea 023f d5c7 d33e 9b60 bc3e bc15 043f
000002b0: 2c52 3a3f d6f1 413f dd7c a03e cdaa ad3e
000002c0: 681d b33e 3036 073f 83f5 c63e 8eb7 273f
000002d0: c41c 063f 9e06 333f b863 4b3f 4d02 e83e
000002e0: 3e81 0f3f d081 b93e e65c c83e 904c 253f
000002f0: e8e4 043f b7f8 9f3e 1d84 ba3e a0ec 383f
00000300: bdcc b33e 6e6a 2f3f 81dc fd3e 4ca0 ee3e
00000310: 1075 3e3f 4598 123f cb9f 113f 5b91 b93e
00000320: f220 dc3e e7f8 1a3f dd85 343f d1a6 3c3f
00000330: ac2c 0f3f 5032 273f 344d 0b3f d8a9 3a3f
00000340: 1a1a 383f 5a52 443f 4d6d 3e3f aad0 263f
00000350: 1076 323f 925d b43e 2484 1f3f fa99 103f
00000360: 5c7d 0a3f 1a92 c93e 8c39 f63e 4362 093f
00000370: 5ad2 3c3f 4ce1 b63e 3e2e 4c3f f8ad 103f
00000380: 2359 463f aa8d 483f 123d da3e 4581 b03e
00000390: 791e fa3e e894 483f 9969 cb3e 5f06 063f
000003a0: 2323 fb3e 7440 2e3f 1a21 e53e 2cde 1a3f
000003b0: 814e 153f 1c16 ec3e 1eb3 353f 7365 b33e
000003c0: a61b ef3e be2a 973e 5abe 3a3f 7a53 263f
000003d0: 5ab8 113f 9bbd 403f 0857 163f 90af 493f
000003e0: 52c2 063f 217d af3e d495 fd3e 5064 9f3e
000003f0: 96e5 3b3f 11ff 1b3f 3e7e 033f 47f1 3c3f
0.7047223 0.40679887 0.4714182 0.5713868 0.51514316 0.6038923 0.60689986 0.7654244
0.4754473 0.47425097 0.6416402 0.47072646 0.48858765 0.45385498 0.3219019 0.46055543
0.6483016 0.48895437 0.36617607 0.4543322 0.6713182 0.60501456 0.3728568 0.3615265
0.6245353 0.6461463 0.39807335 0.5852736 0.63168275 0.60392326 0.3579341 0.71491945
0.67660177 0.5774384 0.7668764 0.34463072 0.72484386 0.7109132 0.6162526 0.6108179
0.5792427 0.32590413 0.3215303 0.73529756 0.51059926 0.45758635 0.5195545 0.7221279
0.68916947 0.74606276 0.3541128 0.5964079 0.77454364 0.65801394 0.54960597 0.33695275
0.7939663 0.66146225 0.44324908 0.6654974 0.5699981 0.7828189 0.55953896 0.5221926
0.72295725 0.5110554 0.77047944 0.44482154 0.34706777 0.3826509 0.70922565 0.34317428
0.5982578 0.53546476 0.7084219 0.37186036 0.6565577 0.5862027 0.4785613 0.5776495
0.34553054 0.6211388 0.6606805 0.7123484 0.60471916 0.3235158 0.69775903 0.61267257
0.50712436 0.44436145 0.75713503 0.7482092 0.54743576 0.39823076 0.65085113 0.58497095
0.41258666 0.64692044 0.31688634 0.7840103 0.6859823 0.66735303 0.6779256 0.723614
0.3040807 0.4097849 0.34783694 0.3518943 0.40508795 0.59863275 0.34627187 0.4826794
0.7993192 0.5549573 0.6617287 0.453529 0.39041683 0.34013593 0.66971046 0.41975692
0.4448133 0.4358032 0.55862564 0.3207883 0.7909632 0.59977365 0.45403364 0.4680087
0.46100545 0.32982898 0.69600844 0.7748343 0.5520339 0.35722655 0.6028238 0.6232685
0.6533892 0.75623024 0.6786806 0.7498888 0.40484634 0.7104827 0.60357046 0.3580739
0.72967696 0.40004832 0.43276185 0.33467692 0.661439 0.34380627 0.4824598 0.78178835
0.5270494 0.33970577 0.43223384 0.6095791 0.37049332 0.46273702 0.42842144 0.54910004
0.6829567 0.60516876 0.7399492 0.4601713 0.60957503 0.7338056 0.41787916 0.4751865
0.5113908 0.41363397 0.36792454 0.51595664 0.72781634 0.7575964 0.31345263 0.33919373
0.34983373 0.5281706 0.38859186 0.6551446 0.5238764 0.6993197 0.79449034 0.45314255
0.5605658 0.36231852 0.39133376 0.6456995 0.51911783 0.31244442 0.3642892 0.7223606
0.3511714 0.68521774 0.49582294 0.46606672 0.74397373 0.57263595 0.5688445 0.3624371
0.42993885 0.60536045 0.7051676 0.7369204 0.5592754 0.65311146 0.5441468 0.7291541
0.7191483 0.7668816 0.7438553 0.65162146 0.697114 0.35227638 0.62311006 0.5648495
0.54097533 0.3936928 0.4809078 0.5366556 0.7375847 0.35718763 0.7975806 0.56515455
0.7747976 0.7834116 0.42624718 0.34473625 0.48851374 0.7835221 0.39729002 0.5235347
0.49050245 0.680671 0.44751817 0.6049526 0.5832291 0.46110618 0.70976436 0.35038337
0.46700782 0.29524797 0.72946703 0.64971125 0.56921923 0.75289315 0.5872655 0.7878351
0.5264026 0.34275153 0.49528372 0.3113122 0.73397195 0.60936075 0.51364505 0.7380566

model.rnn_cell.w f4 [16, 16]
00000000: f70f ea3e 3479 803e efb3 1f3f 2554 a33e
00000010: bf90 323f d244 703e cc62 0d3f 97d4 f53e
00000020: 43a4 6c3f 21bb 4f3e 539f 533f 1865 523f
00000030: 2c16 763f 3014 283f 15e3 583f 4ea0 5b3f
00000040: eb76 463f a2fd f03e abe0 9e3e ad50 7e3e
00000050: 402a 803e 1e9c 0b3e 32f6 f53e b597 8c3e
00000060: c657 743f a76b 323d 523d 5c3f dc85 833d
00000070: 5d4d 263f 463b 293f 89d6 b63e 7fba 493e
00000080: 35ed 093f a81b 3c3f 4c66 7a3f 7a6d 9c3e
00000090: 58a9 273f 71c4 0a3c 11f8 4a3f 1dcb 6a3f
000000a0: 372b 223f 5b83 e93e 32d8 083f 7714 433e
000000b0: 0565 733f 8cfe 863e d116 583f 3db1 233f
000000c0: 0058 f43e 1613 303e 93db 913e 07eb 263f
000000d0: 373d bc3e b3bd 143e 1c65 a23e 43cc 1e3e
000000e0: f8e3 1b3f ed65 9b3e 069b 383f f0c5 4b3e
000000f0: 6787 063f 2abc 7d3f 4e05 0a3e a4c2 1c3d
00000100: 560d 553f 45fb 663e 9621 983e 25d9 6d3e
00000110: 7777 123f b847 0d3e bba4 693e 50fa 523f
00000120: 87fe 473f 9c4f 093f c6d4 183e 8156 cd3e
00000130: 99cb 0a3f 0b95 4f3e 7836 4f3f 3b94 eb3e
00000140: 7478 873e a62c 153d 7f0e 133f 7a1c b83e
00000150: c2b5 4e3f 2e3a e43e 9456 0d3f c25f ef3e
00000160: d9b6 0f3f 84f5 ae3e c607 103f f1ce 4e3f
00000170: 1ea0 353f 9384 9f3e de67 0b3f d59f 263e
00000180: 1337 e53e 8c16 de3e 8608 443f 6ffd a53e
00000190: b2b2 3a3f 3daf c03e 92c9 2e3f fafc 453f
000001a0: 90d0 7f3f c5f4 aa3e 05c0 f13e c77b 353e
000001b0: 47a7 603e 60e9 173f 6c27 583d 2256 ab3e
000001c0: 4b2f 833d 1c1f 753f e3a9 853e a9b0 c13e
000001d0: 6591 9d3e c098 493f c81f 743f 005a e63e
000001e0: 1991 603f cfff 293f 8494 173f 2243 323e
000001f0: 6582 833d 88ec ad3e 82b6 c23e 4ba0 4c3f
00000200: 4b1f 553e f62d 463e 0df1 213f dfb3 283f
00000210: 7f37 263f 18ee 873e 36fe 643f d9cb 353f
00000220: 945f ed3e 07e6 ec3e 2edf 103f 3002 663f
00000230: 2346 f33e 3512 523f 9751 683f 4430 5d3f
00000240: 038e 2b3f 15fb 983d b566 ea3e a73c ef3e
00000250: d4df ec3c 06c4 a93e bb15 123f 7866 a13e
00000260: 448d e33e 34fe 403e 1131 f03e dd46 0e3f
00000270: 49b5 513f 6d9f 983e b6a4 0c3e 9319 463f
00000280: 0722 073e df47 7b3f 59f9 453e bb89 5d3e
00000290: 3c1a d73e dfd3 553e 6037 123e 10bb 913d
000002a0: 3165 953e 11ba 163f fd7a 893e c213 6a3f
000002b0: 511e 283f be46 1e3f ac9c b63e 4827 1c3f
000002c0: e913 203f f654 e33e e436 443e 2d8a 673f
000002d0: 9526 273f f10d 333e 2d1c 163e fb58 383e
000002e0: 0487 303e 9f66 713f 13c8 513f 31f8 243f
000002f0: 4fd0 493f 4f79 5e3f 9762 793f f471 7c3e
00000300: 1c05 f43e 681d 413f 9886 4f3d 806c 1e3f
00000310: 18c1 3c3a 6af7 e03d f687 2e3f 17f8 0b3f
00000320: 4843 0e3f 476e 7f3f 471a dc3e e0f1 363f
00000330: 241d 9c3e 8cf3 cf3e a669 d13e 60b1 383e
00000340: 5d96 9a3e 6a0d 193f 66b2 dc3e 598a 2c3e
00000350: 14e5 6f3f b6d6 5a3e 62b4 323f 7bb2 383d
00000360: a115 313f 0c8e b13e 3737 283f 4ffd 243f
00000370: 142c ef3e cd66 083c 8922 2c3f 2528 593f
00000380: 7ca5 713e 2370 eb3d 12c7 853e 4a47 363f
00000390: a9a5 5f3f 2a56 6abc 93ca d33d f2f2 c13e
000003a0: 1423 0f3f 0ce7 1b3f 2095 d83d 2cc1 543f
000003b0: 3895 bc3e 9ac6 bc3e e45a d23e b7ce 563f
000003c0: c7d4 5e3f 48a0 e33e d6d1 113e f4c5 193f
000003d0: 20b3 183f d508 323e c135 fa3d d049 e63e
000003e0: fc14 033f ded0 763f e3f6 0f3f 3674 7a3e
000003f0: c043 b33d c5f6 6b3f 8e51 753f 974e 753f
0.45715305 0.2509247 0.6238393 0.31900135 0.69752115 0.23463753 0.5522888 0.48013756
0.92438143 0.20286228 0.82664984 0.82185507 0.9612758 0.65655804 0.847215 0.8579148
0.77525204 0.47068506 0.31030783 0.24835463 0.25032234 0.13633773 0.48039395 0.27459493
0.9544643 0.043559697 0.8603107 0.06422016 0.64961797 0.6610607 0.35710552 0.19700049
0.53877574 0.734797 0.9781234 0.30552274 0.65492773 0.008469687 0.7928477 0.91716176
0.6334719 0.4560803 0.5345489 0.19050775 0.9507602 0.2636608 0.84409815 0.6394232
0.4772339 0.1719478 0.28487834 0.65202373 0.36765453 0.1452549 0.31717765 0.15507607
0.6089473 0.303512 0.72111547 0.19899726 0.5255036 0.9911524 0.13478586 0.03827156
0.83223474 0.22556789 0.29713124 0.23227365 0.5721354 0.1379689 0.22816746 0.82413197
0.7812275 0.536371 0.14924917 0.4010506 0.54216915 0.20271699 0.8094249 0.46011528
0.26459086 0.036419533 0.57443994 0.35959226 0.8074609 0.44575638 0.5521023 0.46752745
0.5613838 0.3417169 0.5626186 0.8078452 0.70947444 0.31155834 0.54455364 0.16271909
0.4476858 0.43376577 0.76575506 0.32419917 0.7292892 0.37633696 0.6827632 0.77339137
0.99927616 0.3338987 0.47216812 0.17722999 0.21938811 0.59340477 0.05277197 0.33464152
0.06405505 0.95750594 0.26106176 0.37830094 0.3077499 0.78748703 0.95360994 0.4499054
0.877214 0.6640596 0.5921099 0.17408422 0.06421355 0.33969522 0.38029867 0.7993209
0.20812719 0.1935347 0.6325844 0.6589946 0.6492843 0.2654884 0.89450395 0.7101417
0.46361983 0.46269247 0.56590545 0.8984709 0.47514448 0.8205903 0.90749496 0.8640177
0.6701357 0.07469765 0.45781484 0.46725962 0.028915323 0.33157367 0.5706441 0.3152349
0.44443715 0.18846971 0.46912435 0.5557688 0.81917244 0.29809132 0.13734707 0.77382773
0.13196574 0.9815654 0.193334 0.21634571 0.42012203 0.20881604 0.14278936 0.071157575
0.29178765 0.58877665 0.26851645 0.914364 0.6567126 0.61826694 0.35666406 0.6099744
0.6253038 0.44400758 0.19161564 0.90445215 0.65293247 0.17485787 0.14659186 0.18002693
0.17239004 0.9429721 0.81945914 0.6444121 0.7883348 0.8690385 0.9741606 0.24652845
0.47660148 0.75435495 0.050665468 0.6188431 0.0007200404 0.109846905 0.6817621 0.5467543
0.55571413 0.99777645 0.42988798 0.7146282 0.30490983 0.406155 0.40900916 0.18036413
0.30192843 0.59786093 0.43104857 0.1684965 0.9370892 0.21370968 0.6980649 0.045092087
0.6917363 0.34678686 0.6570925 0.6444902 0.46713316 0.008325291 0.67240196 0.8482688
0.23598284 0.11495998 0.2612844 0.7120253 0.8736215 -0.01430277 0.10341372 0.37880665
0.559129 0.60899425 0.10575318 0.83107257 0.36832595 0.3687027 0.4108497 0.8390917
0.8704342 0.44458222 0.14240202 0.6006768 0.59648323 0.17386182 0.12217284 0.4497819
0.51203895 0.96412456 0.56236094 0.24458393 0.08753157 0.92173415 0.9582757 0.95823044

model.rnn_cell.erev f4 [16, 16]
00000000: 0000 0000 0000 0000 0000 0000 0000 0000
00000010: 0000 0000 0000 0000 0000 0000 0000 0000
00000020: 0000 0000 0000 0000 0000 0000 0000 0000
00000030: 0000 0000 0000 0000 0000 0000 0000 0000
00000040: 66ed 84bf 0000 0000 0000 0000 0000 0000
00000050: 0000 0000 0000 0000 0000 0000 0000 0000
00000060: 0000 0000 0000 0000 0000 0000 0000 0000
00000070: 0000 0000 0000 0000 0000 0000 0000 0000
00000080: 9179 803f 0000 0000 0000 0000 7287 7c3f
00000090: 0000 0000 0000 0000 0000 0000 0000 0000
000000a0: 0000 0000 0000 0000 0000 0000 0000 0000
000000b0: 0000 0000 0000 0000 0000 0000 0000 0000
000000c0: b4d1 7e3f 0000 0000 0000 0000 0000 0000
000000d0: 0000 0000 0000 0000 0000 0000 0000 0000
000000e0: 0000 0000 0000 0000 0000 0000 0000 0000
000000f0: 0000 0000 0000 0000 0000 0000 0000 0000
00000100: deb6 773f 06a1 843f 0000 0000 0000 0000
00000110: 0000 0000 0000 0000 7b19 76bf 0000 0000
00000120: 0000 0000 0000 0000 0000 0000 0000 0000
00000130: 0000 0000 0000 0000 0000 0000 0000 0000
00000140: e4d1 783f 0000 0000 8069 793f 0000 0000
00000150: 0000 0000 0000 0000 0000 0000 0000 0000
00000160: 0000 0000 0000 0000 0000 0000 0000 0000
00000170: 0000 0000 0000 0000 0000 0000 0000 0000
00000180: e221 85bf 0000 0000 0000 0000 17fc 753f
00000190: 0713 85bf 0000 0000 0000 0000 0000 0000
000001a0: 0000 0000 0000 0000 0000 0000 0000 0000
000001b0: 0000 0000 0000 0000 0000 0000 0000 0000
000001c0: 0000 0000 de83 843f 78f4 83bf 40c5 773f
000001d0: 0000 0000 0000 0000 0000 0000 0000 0000
000001e0: 0000 0000 0000 0000 0000 0000 0000 0000
000001f0: 0000 0000 0000 0000 0000 0000 0000 0000
00000200: 0000 0000 2417 85bf 0000 0000 0000 0000
00000210: 36c0 75bf 0000 0000 bf01 85bf 0000 0000
00000220: 0000 0000 0000 0000 0000 0000 0000 0000
00000230: 0000 0000 0000 0000 0000 0000 0000 0000
00000240: 0000 0000 0000 0000 0000 0000 fc57 813f
00000250: 22ae 773f 2b9d 783f 0000 0000 0000 0000
00000260: 0000 0000 0000 0000 0000 0000 0000 0000
00000270: 0000 0000 0000 0000 0000 0000 0000 0000
00000280: 0000 0000 6a54 843f 0000 0000 0000 0000
00000290: 2f52 763f 6a4a 84bf 0000 0000 0000 0000
000002a0: 0000 0000 0000 0000 0000 0000 0000 0000
000002b0: 0000 0000 0000 0000 0000 0000 0000 0000
000002c0: 0000 0000 0000 0000 da64 7b3f 0000 0000
000002d0: 2555 763f feeb 83bf 0000 0000 0000 0000
000002e0: 0000 0000 0000 0000 0000 0000 0000 0000
000002f0: 0000 0000 0000 0000 0000 0000 0000 0000
00000300: 0000 0000 0000 0000 2a84 813f 0000 0000
00000310: 086d 783f 0000 0000 8ce8 78bf 0000 0000
00000320: 0000 0000 0000 0000 0000 0000 0000 0000
00000330: 0000 0000 0000 0000 0000 0000 0000 0000
00000340: 0000 0000 0000 0000 bcca 793f 0000 0000
00000350: 0000 0000 e4b4 76bf cd33 76bf 0000 0000
00000360: 0000 0000 0000 0000 0000 0000 0000 0000
00000370: 0000 0000 0000 0000 0000 0000 0000 0000
00000380: 0000 0000 0000 0000 5217 84bf 0000 0000
00000390: 0000 0000 1b98 773f 671a 853f 0000 0000
000003a0: 0000 0000 0000 0000 0000 0000 0000 0000
000003b0: 0000 0000 0000 0000 0000 0000 0000 0000
000003c0: 0000 0000 66b2 843f 0000 0000 0000 0000
000003d0: 0000 0000 9e46 763f 6120 853f 0000 0000
000003e0: 0000 0000 0000 0000 0000 0000 0000 0000
000003f0: 0000 0000 0000 0000 0000 0000 0000 0000
0.0 0.0 0.0 0.0 0.0 0.0 0.0 0.0
0.0 0.0 0.0 0.0 0.0 0.0 0.0 0.0
-1.0384948 0.0 0.0 0.0 0.0 0.0 0.0 0.0
0.0 0.0 0.0 0.0 0.0 0.0 0.0 0.0
1.0037099 0.0 0.0 0.98644173 0.0 0.0 0.0 0.0
0.0 0.0 0.0 0.0 0.0 0.0 0.0 0.0
0.9953873 0.0 0.0 0.0 0.0 0.0 0.0 0.0
0.0 0.0 0.0 0.0 0.0 0.0 0.0 0.0
0.9676341 1.036164 0.0 0.0 0.0 0.0 -0.9613263 0.0
0.0 0.0 0.0 0.0 0.0 0.0 0.0 0.0
0.9719527 0.0 0.97426605 0.0 0.0 0.0 0.0 0.0
0.0 0.0 0.0 0.0 0.0 0.0 0.0 0.0
-1.0400965 0.0 0.0 0.96087784 -1.0396432 0.0 0.0 0.0
0.0 0.0 0.0 0.0 0.0 0.0 0.0 0.0
0.0 1.0352743 -1.0308981 0.96785355 0.0 0.0 0.0 0.0
0.0 0.0 0.0 0.0 0.0 0.0 0.0 0.0
0.0 -1.0397687 0.0 0.0 -0.95996416 0.0 -1.0391158 0.0
0.0 0.0 0.0 0.0 0.0 0.0 0.0 0.0
0.0 0.0 0.0 1.0104976 0.9675008 0.9711482 0.0 0.0
0.0 0.0 0.0 0.0 0.0 0.0 0.0 0.0
0.0 1.0338261 0.0 0.0 0.9621915 -1.0335209 0.0 0.0
0.0 0.0 0.0 0.0 0.0 0.0 0.0 0.0
0.0 0.0 0.9820076 0.0 0.9622367 -1.0306394 0.0 0.0
0.0 0.0 0.0 0.0 0.0 0.0 0.0 0.0
0.0 0.0 1.0118458 0.0 0.9704137 0.0 -0.9722984 0.0
0.0 0.0 0.0 0.0 0.0 0.0 0.0 0.0
0.0 0.0 0.97574973 0.0 0.0 -0.9636977 -0.9617279 0.0
0.0 0.0 0.0 0.0 0.0 0.0 0.0 0.0
0.0 0.0 -1.0319617 0.0 0.0 0.9671647 1.0398682 0.0
0.0 0.0 0.0 0.0 0.0 0.0 0.0 0.0
0.0 1.0366943 0.0 0.0 0.0 0.96201503 1.0400506 0.0
0.0 0.0 0.0 0.0 0.0 0.0 0.0 0.0

model.rnn_cell.sensory_sigma f4 [2, 16]
00000000: 010a a740 824e bd40 5640 8e40 3e57 ec40
00000010: af26 f740 bd77 ce40 af77 d740 eccc e140
00000020: 54fa 7f40 88c0 f340 1c6c f040 4d91 fe40
00000030: 96b3 c840 7e7c 9f40 c607 db40 0806 f440
00000040: 37d5 9140 0498 df40 f40d 5f40 fae6 a440
00000050: 432f 5140 5e95 8040 b4d1 c640 330f ee40
00000060: f9b5 d640 24fe 9a40 0ea9 6840 b800 c840
00000070: 3176 9940 aa32 4d40 713b 7e40 01cd cd40
5.219971 5.9158335 4.4453535 7.3856497 7.723472 6.4521165 6.73336 7.056265
3.9996538 7.6172523 7.513197 7.955237 6.271922 4.983947 6.844699 7.625736
4.557277 6.9873066 3.4852266 5.1531954 3.2685096 4.0182333 6.2130985 7.4393554
6.7097135 4.843523 3.6353183 6.2500877 4.7956777 3.2062173 3.972378 6.431275

model.rnn_cell.sensory_mu f4 [2, 16]
00000000: 1085 453f 3780 4a3f 8d29 233f ba48 143f
00000010: 46f3 f03e 1415 283f 4581 c03e 645e 353f
00000020: cc5f dd3e 6109 393f 515d e03e 021a b73e
00000030: d8ed 203f 48f8 473f b1fa 0b3f 10af e93e
00000040: 2eb9 ec3e 7027 223f 34f6 463f c27d 1c3f
00000050: 01dc c93e bc15 183f 0232 fe3e a3a7 dd3e
00000060: 3f15 0f3f b775 f63e 72d3 263f cd70 153f
00000070: fc30 ee3e e828 c23e eb84 b63e 5b76 f93e
0.7715616 0.7910189 0.63735276 0.5792347 0.47060603 0.6565716 0.37598625 0.70847154
0.4323715 0.72279936 0.43821195 0.3576203 0.6286292 0.7811322 0.546794 0.45641375
0.4623503 0.63341427 0.77719426 0.6112939 0.39425662 0.59408164 0.49647528 0.4329196
0.55891794 0.48136684 0.6516639 0.58375245 0.46521747 0.37921834 0.35648283 0.4872311

model.rnn_cell.sensory_w f4 [2, 16]
00000000: 20a0 643f 61b4 003f 3f7e ce3e 92f1 153f
00000010: 816a 233f 55f6 683f b336 853e e031 313f
00000020: ff39 6f3f 1a12 463e 380b 413f 411d 5b3f
00000030: a12f 3f3f 80c3 a93c 7c3f 813d f8b8 363f
00000040: c5a1 a13d 685c eb3d 5556 663f df40 883e
00000050: 003d 133f 9bd7 633f 22f3 4b3f 4b64 2c3d
00000060: 0639 a53e 5e46 2a3e 385c 533f f12a 703f
00000070: a7ac 413e 4bb4 813f 9852 533f fe1d 303f
0.8930683 0.50275236 0.40330693 0.5857173 0.6383439 0.9100087 0.26018295 0.6921673
0.9344787 0.19342843 0.75407743 0.8559151 0.7468205 0.020723104 0.06310937 0.7137599
0.07892183 0.114922345 0.8997548 0.26611993 0.57514954 0.8900086 0.79667866 0.042087834
0.32270068 0.16628405 0.8256259 0.93815523 0.18913518 1.0133146 0.82547903 0.68795764

model.rnn_cell.sensory_erev f4 [2, 16]
00000000: 0000 0000 0000 0000 0000 0000 0000 0000
00000010: 0000 0000 0000 0000 0000 0000 0000 0000
00000020: 0000 0000 5ee5 81bf df97 823f f566 763f
00000030: 999c 7dbf 0000 0000 e9ea 843f b60f 853f
00000040: 0000 0000 0000 0000 0000 0000 0000 0000
00000050: 0000 0000 0000 0000 0000 0000 05f6 84bf
00000060: 130c 853f 0000 0000 96d4 753f 0000 0000
00000070: 0000 0000 979b 84bf 0000 0000 ae17 85bf
0.0 0.0 0.0 0.0 0.0 0.0 0.0 0.0
0.0 -1.0148122 1.0202597 0.9625085 -0.99067074 0.0 1.0384189 1.039542
0.0 0.0 0.0 0.0 0.0 0.0 0.0 -1.0387579
1.039431 0.0 0.96027505 0.0 0.0 -1.0359982 0.0 -1.0397851

model.rnn_cell.sparsity_mask f4 [16, 16]
00000000: 0000 0000 0000 0000 0000 0000 0000 0000
00000010: 0000 0000 0000 0000 0000 0000 0000 0000
00000020: 0000 0000 0000 0000 0000 0000 0000 0000
00000030: 0000 0000 0000 0000 0000 0000 0000 0000
00000040: 0000 803f 0000 0000 0000 0000 0000 0000
00000050: 0000 0000 0000 0000 0000 0000 0000 0000
00000060: 0000 0000 0000 0000 0000 0000 0000 0000
00000070: 0000 0000 0000 0000 0000 0000 0000 0000
00000080: 0000 803f 0000 0000 0000 0000 0000 803f
00000090: 0000 0000 0000 0000 0000 0000 0000 0000
000000a0: 0000 0000 0000 0000 0000 0000 0000 0000
000000b0: 0000 0000 0000 0000 0000 0000 0000 0000
000000c0: 0000 803f 0000 0000 0000 0000 0000 0000
000000d0: 0000 0000 0000 0000 0000 0000 0000 0000
000000e0: 0000 0000 0000 0000 0000 0000 0000 0000
000000f0: 0000 0000 0000 0000 0000 0000 0000 0000
00000100: 0000 803f 0000 803f 0000 0000 0000 0000
00000110: 0000 0000 0000 0000 0000 803f 0000 0000
00000120: 0000 0000 0000 0000 0000 0000 0000 0000
00000130: 0000 0000 0000 0000 0000 0000 0000 0000
00000140: 0000 803f 0000 0000 0000 803f 0000 0000
00000150: 0000 0000 0000 0000 0000 0000 0000 0000
00000160: 0000 0000 0000 0000 0000 0000 0000 0000
00000170: 0000 0000 0000 0000 0000 0000 0000 0000
00000180: 0000 803f 0000 0000 0000 0000 0000 803f
00000190: 0000 803f 0000 0000 0000 0000 0000 0000
000001a0: 0000 0000 0000 0000 0000 0000 0000 0000
000001b0: 0000 0000 0000 0000 0000 0000 0000 0000
000001c0: 0000 0000 0000 803f 0000 803f 0000 803f
000001d0: 0000 0000 0000 0000 0000 0000 0000 0000
000001e0: 0000 0000 0000 0000 0000 0000 0000 0000
000001f0: 0000 0000 0000 0000 0000 0000 0000 0000
00000200: 0000 0000 0000 803f 0000 0000 0000 0000
00000210: 0000 803f 0000 0000 0000 803f 0000 0000
00000220: 0000 0000 0000 0000 0000 0000 0000 0000
00000230: 0000 0000 0000 0000 0000 0000 0000 0000
00000240: 0000 0000 0000 0000 0000 0000 0000 803f
00000250: 0000 803f 0000 803f 0000 0000 0000 0000
00000260: 0000 0000 0000 0000 0000 0000 0000 0000
00000270: 0000 0000 0000 0000 0000 0000 0000 0000
00000280: 0000 0000 0000 803f 0000 0000 0000 0000
00000290: 0000 803f 0000 803f 0000 0000 0000 0000
000002a0: 0000 0000 0000 0000 0000 0000 0000 0000
000002b0: 0000 0000 0000 0000 0000 0000 0000 0000
000002c0: 0000 0000 0000 0000 0000 803f 0000 0000
000002d0: 0000 803f 0000 803f 0000 0000 0000 0000
000002e0: 0000 0000 0000 0000 0000 0000 0000 0000
000002f0: 0000 0000 0000 0000 0000 0000 0000 0000
00000300: 0000 0000 0000 0000 0000 803f 0000 0000
00000310: 0000 803f 0000 0000 0000 803f 0000 0000
00000320: 0000 0000 0000 0000 0000 0000 0000 0000
00000330: 0000 0000 0000 0000 0000 0000 0000 0000
00000340: 0000 0000 0000 0000 0000 803f 0000 0000
00000350: 0000 0000 0000 803f 0000 803f 0000 0000
00000360: 0000 0000 0000 0000 0000 0000 0000 0000
00000370: 0000 0000 0000 0000 0000 0000 0000 0000
00000380: 0000 0000 0000 0000 0000 803f 0000 0000
00000390: 0000 0000 0000 803f 0000 803f 0000 0000
000003a0: 0000 0000 0000 0000 0000 0000 0000 0000
000003b0: 0000 0000 0000 0000 0000 0000 0000 0000
000003c0: 0000 0000 0000 803f 0000 0000 0000 0000
000003d0: 0000 0000 0000 803f 0000 803f 0000 0000
000003e0: 0000 0000 0000 0000 0000 0000 0000 0000
000003f0: 0000 0000 0000 0000 0000 0000 0000 0000
0.0 0.0 0.0 0.0 0.0 0.0 0.0 0.0
0.0 0.0 0.0 0.0 0.0 0.0 0.0 0.0
1.0 0.0 0.0 0.0 0.0 0.0 0.0 0.0
0.0 0.0 0.0 0.0 0.0 0.0 0.0 0.0
1.0 0.0 0.0 1.0 0.0 0.0 0.0 0.0
0.0 0.0 0.0 0.0 0.0 0.0 0.0 0.0
1.0 0.0 0.0 0.0 0.0 0.0 0.0 0.0
0.0 0.0 0.0 0.0 0.0 0.0 0.0 0.0
1.0 1.0 0.0 0.0 0.0 0.0 1.0 0.0
0.0 0.0 0.0 0.0 0.0 0.0 0.0 0.0
1.0 0.0 1.0 0.0 0.0 0.0 0.0 0.0
0.0 0.0 0.0 0.0 0.0 0.0 0.0 0.0
1.0 0.0 0.0 1.0 1.0 0.0 0.0 0.0
0.0 0.0 0.0 0.0 0.0 0.0 0.0 0.0
0.0 1.0 1.0 1.0 0.0 0.0 0.0 0.0
0.0 0.0 0.0 0.0 0.0 0.0 0.0 0.0
0.0 1.0 0.0 0.0 1.0 0.0 1.0 0.0
0.0 0.0 0.0 0.0 0.0 0.0 0.0 0.0
0.0 0.0 0.0 1.0 1.0 1.0 0.0 0.0
0.0 0.0 0.0 0.0 0.0 0.0 0.0 0.0
0.0 1.0 0.0 0.0 1.0 1.0 0.0 0.0
0.0 0.0 0.0 0.0 0.0 0.0 0.0 0.0
0.0 0.0 1.0 0.0 1.0 1.0 0.0 0.0
0.0 0.0 0.0 0.0 0.0 0.0 0.0 0.0
0.0 0.0 1.0 0.0 1.0 0.0 1.0 0.0
0.0 0.0 0.0 0.0 0.0 0.0 0.0 0.0
0.0 0.0 1.0 0.0 0.0 1.0 1.0 0.0
0.0 0.0 0.0 0.0 0.0 0.0 0.0 0.0
0.0 0.0 1.0 0.0 0.0 1.0 1.0 0.0
0.0 0.0 0.0 0.0 0.0 0.0 0.0 0.0
0.0 1.0 0.0 0.0 0.0 1.0 1.0 0.0
0.0 0.0 0.0 0.0 0.0 0.0 0.0 0.0

model.rnn_cell.sensory_sparsity_mask f4 [2, 16]
00000000: 0000 0000 0000 0000 0000 0000 0000 0000
00000010: 0000 0000 0000 0000 0000 0000 0000 0000
00000020: 0000 0000 0000 803f 0000 803f 0000 803f
00000030: 0000 803f 0000 0000 0000 803f 0000 803f
00000040: 0000 0000 0000 0000 0000 0000 0000 0000
00000050: 0000 0000 0000 0000 0000 0000 0000 803f
00000060: 0000 803f 0000 0000 0000 803f 0000 0000
00000070: 0000 0000 0000 803f 0000 0000 0000 803f
0.0 0.0 0.0 0.0 0.0 0.0 0.0 0.0
0.0 1.0 1.0 1.0 1.0 0.0 1.0 1.0
0.0 0.0 0.0 0.0 0.0 0.0 0.0 1.0
1.0 0.0 1.0 0.0 0.0 1.0 0.0 1.0

model.rnn_cell.input_w f4 [2]
00000000: 975e 823f f515 853f
1.0185117 1.0397326

model.rnn_cell.input_b f4 [2]
00000000: 981e 6abb cac7 213d
-0.0035723802 0.039497174

exp_avg f4 [16]
00000000: 1a9b 083c 4f4b 063c 8ad6 f439 8af9 073a
00000010: 3639 e7bb 41f9 3cb9 2a85 913b e25b a036
00000020: 5c1c a83b 5b4b 51b9 b30c 13ba 3550 daba
00000030: a82f 20b8 22bd 0c39 3062 013b 4da8 973b
0.00833776 0.008196666 0.0004669915 0.00051870255 -0.0070563806 -0.00018021931 0.004440923 4.779068e-06
0.005130334 -0.00019959865 -0.00056094973 -0.0016655984 -3.8191356e-05 0.00013421898 0.0019742362 0.0046282173

exp_avg_sq f4 [16]
00000000: 748d 1e36 5b6d 8c36 762a d032 d219 b033
00000010: 22a3 1136 56b3 d130 0d4f 3135 1c2c 5b2b
00000020: b48d 7735 feab 4f31 433a 9e33 cde5 1034
00000030: 1e09 712e bdbc 2630 bcc6 2e34 35ef 4f35
2.3626171e-06 4.185056e-06 2.4233696e-08 8.200335e-08 2.170164e-06 1.5257722e-09 6.605267e-07 7.7865644e-13
9.2220876e-07 3.022023e-09 7.368046e-08 1.3494646e-07 5.4805153e-11 6.065866e-10 1.6277312e-07 7.74616e-07

exp_avg f4 [16]
00000000: d1f3 bbbc f5b5 09bc a2d7 30bb 4480 49bb
00000010: 40f0 923c 5e71 c63a e47a 21bc 4de3 3339
00000020: 8e78 1fbc 3444 81bb 442c cd39 9ac8 683b
00000030: 869e 0339 ad53 493b d39e 92bb d6e2 e2bb
-0.02294341 -0.008405198 -0.0026983996 -0.0030746618 0.017936826 0.0015139987 -0.00985596 0.00017155446
-0.009733332 -0.003944898 0.00039133627 0.0035519958 0.00012552188 0.003072004 -0.0044744997 -0.0069240136

exp_avg_sq f4 [16]
00000000: d684 3038 41f8 3937 c49d 9835 50b7 8536
00000010: 2451 7237 248b e434 85e3 8836 1810 0231
00000020: f88a 7936 0a2f 0636 18c7 8735 0fb5 8c35
00000030: e8aa c831 00ac ba34 7b08 e735 7b7e 2636
4.2085383e-05 1.108466e-05 1.1370798e-06 3.9850493e-06 1.4443216e-05 4.2569548e-07 4.0796026e-06 1.8926638e-09
3.7184782e-06 1.9994936e-06 1.0116228e-06 1.0483508e-06 5.840196e-09 3.4770346e-07 1.7213309e-06 2.480955e-06

exp_avg f4 [16]
00000000: 5bf4 2eb9 e499 1bba 4392 3e37 a4d3 b5b8
00000010: 4568 d839 bcff f135 9ae0 86b9 3a10 b2b6
00000020: 24d7 35ba 18b8 e8b7 fbe5 ff39 f65e ff39
00000030: 70e1 3eb7 d093 93b8 ae25 e5b9 5b34 6338
-0.00016684963 -0.0005935712 1.1358937e-05 -8.670174e-05 0.00041276417 1.8030328e-06 -0.00025725813 -5.3067024e-06
-0.00069366605 -2.774228e-05 0.0004880874 0.00048708142 -1.1377371e-05 -7.0370384e-05 -0.00043706357 5.4169777e-05

exp_avg_sq f4 [16]
00000000: 3b01 0c31 7e59 5832 c9a0 832d 96cd 8a2f
00000010: e8a6 d431 bab8 f42b 02b3 1a31 2abc 872b
00000020: 077f 9432 3890 362f 9ba1 1232 d3c2 1632
00000030: 9aa8 d52c b075 3e2f 0cd1 da31 a162 0330
2.037338e-09 1.2593203e-08 1.4964379e-11 2.524813e-10 6.188987e-09 1.7388515e-12 2.2511704e-09 9.644553e-13
1.7287233e-08 1.660404e-10 8.535063e-09 8.775447e-09 6.0725426e-12 1.732221e-10 6.368401e-09 4.779768e-10

exp_avg f4 [16, 16]
00000000: 0000 0000 0000 0000 0000 0000 0000 0000
00000010: 0000 0000 0000 0000 0000 0000 0000 0000
00000020: 0000 0000 0000 0000 0000 0000 0000 0000
00000030: 0000 0000 0000 0000 0000 0000 0000 0000
00000040: dbc7 f3ba 0000 0000 0000 0000 0000 0000
00000050: 0000 0000 0000 0000 0000 0000 0000 0000
00000060: 0000 0000 0000 0000 0000 0000 0000 0000
00000070: 0000 0000 0000 0000 0000 0000 0000 0000
00000080: 9d89 1f39 0000 0000 0000 0000 4b98 ae38
00000090: 0000 0000 0000 0000 0000 0000 0000 0000
000000a0: 0000 0000 0000 0000 0000 0000 0000 0000
000000b0: 0000 0000 0000 0000 0000 0000 0000 0000
000000c0: e09b 4d3a 0000 0000 0000 0000 0000 0000
000000d0: 0000 0000 0000 0000 0000 0000 0000 0000
000000e0: 0000 0000 0000 0000 0000 0000 0000 0000
000000f0: 0000 0000 0000 0000 0000 0000 0000 0000
00000100: b945 17ba 6ddc d0b8 0000 0000 0000 0000
00000110: 0000 0000 0000 0000 7f64 0bba 0000 0000
00000120: 0000 0000 0000 0000 0000 0000 0000 0000
00000130: 0000 0000 0000 0000 0000 0000 0000 0000
00000140: d963 97b8 0000 0000 3cf9 01b6 0000 0000
00000150: 0000 0000 0000 0000 0000 0000 0000 0000
00000160: 0000 0000 0000 0000 0000 0000 0000 0000
00000170: 0000 0000 0000 0000 0000 0000 0000 0000
00000180: 600d 17b8 0000 0000 0000 0000 abad 88b9
00000190: 395f b039 0000 0000 0000 0000 0000 0000
000001a0: 0000 0000 0000 0000 0000 0000 0000 0000
000001b0: 0000 0000 0000 0000 0000 0000 0000 0000
000001c0: 0000 0000 6c89 d737 473f fa36 b596 1fb8
000001d0: 0000 0000 0000 0000 0000 0000 0000 0000
000001e0: 0000 0000 0000 0000 0000 0000 0000 0000
000001f0: 0000 0000 0000 0000 0000 0000 0000 0000
00000200: 0000 0000 b2d6 cbb9 0000 0000 0000 0000
00000210: a590 9cb7 0000 0000 9aa9 6339 0000 0000
00000220: 0000 0000 0000 0000 0000 0000 0000 0000
00000230: 0000 0000 0000 0000 0000 0000 0000 0000
00000240: 0000 0000 0000 0000 0000 0000 8426 7c39
00000250: 56fb 66b8 1c05 6d36 0000 0000 0000 0000
00000260: 0000 0000 0000 0000 0000 0000 0000 0000
00000270: 0000 0000 0000 0000 0000 0000 0000 0000
00000280: 0000 0000 61a5 8639 0000 0000 0000 0000
00000290: b5b0 65b8 ee6e cb38 0000 0000 0000 0000
000002a0: 0000 0000 0000 0000 0000 0000 0000 0000
000002b0: 0000 0000 0000 0000 0000 0000 0000 0000
000002c0: 0000 0000 0000 0000 8925 f938 0000 0000
000002d0: 9568 8339 8aed e437 0000 0000 0000 0000
000002e0: 0000 0000 0000 0000 0000 0000 0000 0000
000002f0: 0000 0000 0000 0000 0000 0000 0000 0000
00000300: 0000 0000 0000 0000 528c 5638 0000 0000
00000310: 9577 8ab5 0000 0000 8497 78b7 0000 0000
00000320: 0000 0000 0000 0000 0000 0000 0000 0000
00000330: 0000 0000 0000 0000 0000 0000 0000 0000
00000340: 0000 0000 0000 0000 ab56 44b7 0000 0000
00000350: 0000 0000 11be e7b7 8721 ceb9 0000 0000
00000360: 0000 0000 0000 0000 0000 0000 0000 0000
00000370: 0000 0000 0000 0000 0000 0000 0000 0000
00000380: 0000 0000 0000 0000 e7f0 f1b8 0000 0000
00000390: 0000 0000 5d36 32b8 74c7 3d38 0000 0000
000003a0: 0000 0000 0000 0000 0000 0000 0000 0000
000003b0: 0000 0000 0000 0000 0000 0000 0000 0000
000003c0: 0000 0000 66b3 b8ba 0000 0000 0000 0000
000003d0: 0000 0000 9ccd 27b8 693c 6f39 0000 0000
000003e0: 0000 0000 0000 0000 0000 0000 0000 0000
000003f0: 0000 0000 0000 0000 0000 0000 0000 0000
0.0 0.0 0.0 0.0 0.0 0.0 0.0 0.0
0.0 0.0 0.0 0.0 0.0 0.0 0.0 0.0
-0.001859899 0.0 0.0 0.0 0.0 0.0 0.0 0.0
0.0 0.0 0.0 0.0 0.0 0.0 0.0 0.0
0.00015214687 0.0 0.0 8.325333e-05 0.0 0.0 0.0 0.0
0.0 0.0 0.0 0.0 0.0 0.0 0.0 0.0
0.00078433566 0.0 0.0 0.0 0.0 0.0 0.0 0.0
0.0 0.0 0.0 0.0 0.0 0.0 0.0 0.0
-0.00057705824 -9.9592704e-05 0.0 0.0 0.0 0.0 -0.0005317404 0.0
0.0 0.0 0.0 0.0 0.0 0.0 0.0 0.0
-7.218839e-05 0.0 -1.9367571e-06 0.0 0.0 0.0 0.0 0.0
0.0 0.0 0.0 0.0 0.0 0.0 0.0 0.0
-3.6013662e-05 0.0 0.0 -0.00026069334 0.00033640282 0.0 0.0 0.0
0.0 0.0 0.0 0.0 0.0 0.0 0.0 0.0
0.0 2.569399e-05 7.457947e-06 -3.804891e-05 0.0 0.0 0.0 0.0
0.0 0.0 0.0 0.0 0.0 0.0 0.0 0.0
0.0 -0.00038879138 0.0 0.0 -1.8664005e-05 0.0 0.00021711588 0.0
0.0 0.0 0.0 0.0 0.0 0.0 0.0 0.0
0.0 0.0 0.0 0.00024046941 -5.5070348e-05 3.5318726e-06 0.0 0.0
0.0 0.0 0.0 0.0 0.0 0.0 0.0 0.0
0.0 0.0002568169 0.0 0.0 -5.4762426e-05 9.7004566e-05 0.0 0.0
0.0 0.0 0.0 0.0 0.0 0.0 0.0 0.0
0.0 0.0 0.00011880237 0.0 0.00025064187 2.729033e-05 0.0 0.0
0.0 0.0 0.0 0.0 0.0 0.0 0.0 0.0
0.0 0.0 5.115226e-05 0.0 -1.0316604e-06 0.0 -1.4817229e-05 0.0
0.0 0.0 0.0 0.0 0.0 0.0 0.0 0.0
0.0 0.0 -1.1702689e-05 0.0 0.0 -2.7625852e-05 -0.00039316362 0.0
0.0 0.0 0.0 0.0 0.0 0.0 0.0 0.0
0.0 0.0 -0.00011536647 0.0 0.0 -4.2489137e-05 4.5246867e-05 0.0
0.0 0.0 0.0 0.0 0.0 0.0 0.0 0.0
0.0 -0.0014091551 0.0 0.0 0.0 -4.000739e-05 0.0002281532 0.0
0.0 0.0 0.0 0.0 0.0 0.0 0.0 0.0

exp_avg_sq f4 [16, 16]
00000000: 0000 0000 0000 0000 0000 0000 0000 0000
00000010: 0000 0000 0000 0000 0000 0000 0000 0000
00000020: 0000 0000 0000 0000 0000 0000 0000 0000
00000030: 0000 0000 0000 0000 0000 0000 0000 0000
00000040: e8ae 2f34 0000 0000 0000 0000 0000 0000
00000050: 0000 0000 0000 0000 0000 0000 0000 0000
00000060: 0000 0000 0000 0000 0000 0000 0000 0000
00000070: 0000 0000 0000 0000 0000 0000 0000 0000
00000080: cd57 8331 0000 0000 0000 0000 a64f 7d31
00000090: 0000 0000 0000 0000 0000 0000 0000 0000
000000a0: 0000 0000 0000 0000 0000 0000 0000 0000
000000b0: 0000 0000 0000 0000 0000 0000 0000 0000
000000c0: c69d 2134 0000 0000 0000 0000 0000 0000
000000d0: 0000 0000 0000 0000 0000 0000 0000 0000
000000e0: 0000 0000 0000 0000 0000 0000 0000 0000
000000f0: 0000 0000 0000 0000 0000 0000 0000 0000
00000100: 1aca 3b33 49fe ab30 0000 0000 0000 0000
00000110: 0000 0000 0000 0000 28c8 2a32 0000 0000
00000120: 0000 0000 0000 0000 0000 0000 0000 0000
00000130: 0000 0000 0000 0000 0000 0000 0000 0000
00000140: ed0f 1d31 0000 0000 f3cb a92c 0000 0000
00000150: 0000 0000 0000 0000 0000 0000 0000 0000
00000160: 0000 0000 0000 0000 0000 0000 0000 0000
00000170: 0000 0000 0000 0000 0000 0000 0000 0000
00000180: e933 1233 0000 0000 0000 0000 52b5 9231
00000190: a22b 8231 0000 0000 0000 0000 0000 0000
000001a0: 0000 0000 0000 0000 0000 0000 0000 0000
000001b0: 0000 0000 0000 0000 0000 0000 0000 0000
000001c0: 0000 0000 31c9 602f 8746 1c2d eb92 0b2f
000001d0: 0000 0000 0000 0000 0000 0000 0000 0000
000001e0: 0000 0000 0000 0000 0000 0000 0000 0000
000001f0: 0000 0000 0000 0000 0000 0000 0000 0000
00000200: 0000 0000 8f42 bc31 0000 0000 0000 0000
00000210: 34cd 5c2f 0000 0000 e48e e630 0000 0000
00000220: 0000 0000 0000 0000 0000 0000 0000 0000
00000230: 0000 0000 0000 0000 0000 0000 0000 0000
00000240: 0000 0000 0000 0000 0000 0000 847e 3431
00000250: 026b 972f 6cf3 102f 0000 0000 0000 0000
00000260: 0000 0000 0000 0000 0000 0000 0000 0000
00000270: 0000 0000 0000 0000 0000 0000 0000 0000
00000280: 0000 0000 1b54 9531 0000 0000 0000 0000
00000290: 3542 292f 0f0f 5230 0000 0000 0000 0000
000002a0: 0000 0000 0000 0000 0000 0000 0000 0000
000002b0: 0000 0000 0000 0000 0000 0000 0000 0000
000002c0: 0000 0000 0000 0000 9427 2430 0000 0000
000002d0: 9b16 3231 b444 9c2f 0000 0000 0000 0000
000002e0: 0000 0000 0000 0000 0000 0000 0000 0000
000002f0: 0000 0000 0000 0000 0000 0000 0000 0000
00000300: 0000 0000 0000 0000 6294 062f 0000 0000
00000310: 90a5 b92a 0000 0000 c4a9 ed2d 0000 0000
00000320: 0000 0000 0000 0000 0000 0000 0000 0000
00000330: 0000 0000 0000 0000 0000 0000 0000 0000
00000340: 0000 0000 0000 0000 7402 192f 0000 0000
00000350: 0000 0000 d577 d42e 7e4e c431 0000 0000
00000360: 0000 0000 0000 0000 0000 0000 0000 0000
00000370: 0000 0000 0000 0000 0000 0000 0000 0000
00000380: 0000 0000 0000 0000 61f8 9230 0000 0000
00000390: 0000 0000 e7b1 c42f 91ac 0231 0000 0000
000003a0: 0000 0000 0000 0000 0000 0000 0000 0000
000003b0: 0000 0000 0000 0000 0000 0000 0000 0000
000003c0: 0000 0000 eb93 8e33 0000 0000 0000 0000
000003d0: 0000 0000 8954 e22e 4a70 4b31 0000 0000
000003e0: 0000 0000 0000 0000 0000 0000 0000 0000
000003f0: 0000 0000 0000 0000 0000 0000 0000 0000
0.0 0.0 0.0 0.0 0.0 0.0 0.0 0.0
0.0 0.0 0.0 0.0 0.0 0.0 0.0 0.0
1.6361776e-07 0.0 0.0 0.0 0.0 0.0 0.0 0.0
0.0 0.0 0.0 0.0 0.0 0.0 0.0 0.0
3.8225836e-09 0.0 0.0 3.686162e-09 0.0 0.0 0.0 0.0
0.0 0.0 0.0 0.0 0.0 0.0 0.0 0.0
1.5051691e-07 0.0 0.0 0.0 0.0 0.0 0.0 0.0
0.0 0.0 0.0 0.0 0.0 0.0 0.0 0.0
4.372314e-08 1.251416e-09 0.0 0.0 0.0 0.0 9.940813e-09 0.0
0.0 0.0 0.0 0.0 0.0 0.0 0.0 0.0
2.285556e-09 0.0 4.825912e-12 0.0 0.0 0.0 0.0 0.0
0.0 0.0 0.0 0.0 0.0 0.0 0.0 0.0
3.4040486e-08 0.0 0.0 4.269773e-09 3.7884584e-09 0.0 0.0 0.0
0.0 0.0 0.0 0.0 0.0 0.0 0.0 0.0
0.0 2.0444159e-10 8.8832336e-12 1.2694172e-10 0.0 0.0 0.0 0.0
0.0 0.0 0.0 0.0 0.0 0.0 0.0 0.0
0.0 5.479087e-09 0.0 0.0 2.0081786e-10 0.0 1.6775314e-09 0.0
0.0 0.0 0.0 0.0 0.0 0.0 0.0 0.0
0.0 0.0 0.0 2.6265363e-09 2.7542774e-10 1.3183205e-10 0.0 0.0
0.0 0.0 0.0 0.0 0.0 0.0 0.0 0.0
0.0 4.3460324e-09 0.0 0.0 1.5393982e-10 7.6418954e-10 0.0 0.0
0.0 0.0 0.0 0.0 0.0 0.0 0.0 0.0
0.0 0.0 5.9719096e-10 0.0 2.5915259e-09 2.842505e-10 0.0 0.0
0.0 0.0 0.0 0.0 0.0 0.0 0.0 0.0
0.0 0.0 1.2239945e-10 0.0 3.2977484e-13 0.0 2.7019172e-11 0.0
0.0 0.0 0.0 0.0 0.0 0.0 0.0 0.0
0.0 0.0 1.391614e-10 0.0 0.0 9.66193e-11 5.7132743e-09 0.0
0.0 0.0 0.0 0.0 0.0 0.0 0.0 0.0
0.0 0.0 1.0693492e-09 0.0 0.0 3.57786e-10 1.9015582e-09 0.0
0.0 0.0 0.0 0.0 0.0 0.0 0.0 0.0
0.0 6.6392964e-08 0.0 0.0 0.0 1.02923066e-10 2.9604217e-09 0.0
0.0 0.0 0.0 0.0 0.0 0.0 0.0 0.0

exp_avg f4 [16, 16]
00000000: 0000 0000 0000 0000 0000 0000 0000 0000
00000010: 0000 0000 0000 0000 0000 0000 0000 0000
00000020: 0000 0000 0000 0000 0000 0000 0000 0000
00000030: 0000 0000 0000 0000 0000 0000 0000 0000
00000040: ffd4 f03c 0000 0000 0000 0000 0000 0000
00000050: 0000 0000 0000 0000 0000 0000 0000 0000
00000060: 0000 0000 0000 0000 0000 0000 0000 0000
00000070: 0000 0000 0000 0000 0000 0000 0000 0000
00000080: 222e dc3a 0000 0000 0000 0000 09c0 cf3a
00000090: 0000 0000 0000 0000 0000 0000 0000 0000
000000a0: 0000 0000 0000 0000 0000 0000 0000 0000
000000b0: 0000 0000 0000 0000 0000 0000 0000 0000
000000c0: a8dc 9e3b 0000 0000 0000 0000 0000 0000
000000d0: 0000 0000 0000 0000 0000 0000 0000 0000
000000e0: 0000 0000 0000 0000 0000 0000 0000 0000
000000f0: 0000 0000 0000 0000 0000 0000 0000 0000
00000100: 8365 ddbc 7d6f da3b 0000 0000 0000 0000
00000110: 0000 0000 0000 0000 cef1 78bc 0000 0000
00000120: 0000 0000 0000 0000 0000 0000 0000 0000
00000130: 0000 0000 0000 0000 0000 0000 0000 0000
00000140: a063 00bb 0000 0000 6c08 15b8 0000 0000
00000150: 0000 0000 0000 0000 0000 0000 0000 0000
00000160: 0000 0000 0000 0000 0000 0000 0000 0000
00000170: 0000 0000 0000 0000 0000 0000 0000 0000
00000180: 818b 8b3c 0000 0000 0000 0000 a97b 25bb
00000190: caf6 a53b 0000 0000 0000 0000 0000 0000
000001a0: 0000 0000 0000 0000 0000 0000 0000 0000
000001b0: 0000 0000 0000 0000 0000 0000 0000 0000
000001c0: 0000 0000 6de1 3939 00c0 4638 d197 c3b9
000001d0: 0000 0000 0000 0000 0000 0000 0000 0000
000001e0: 0000 0000 0000 0000 0000 0000 0000 0000
000001f0: 0000 0000 0000 0000 0000 0000 0000 0000
00000200: 0000 0000 51ba b33c 0000 0000 0000 0000
00000210: c6a2 25bc 0000 0000 7817 173c 0000 0000
00000220: 0000 0000 0000 0000 0000 0000 0000 0000
00000230: 0000 0000 0000 0000 0000 0000 0000 0000
00000240: 0000 0000 0000 0000 0000 0000 5af6 cf3b
00000250: d0b8 66b9 2a40 36ba 0000 0000 0000 0000
00000260: 0000 0000 0000 0000 0000 0000 0000 0000
00000270: 0000 0000 0000 0000 0000 0000 0000 0000
00000280: 0000 0000 e8d8 dc3a 0000 0000 0000 0000
00000290: 4624 e0bb 1084 913a 0000 0000 0000 0000
000002a0: 0000 0000 0000 0000 0000 0000 0000 0000
000002b0: 0000 0000 0000 0000 0000 0000 0000 0000
000002c0: 0000 0000 0000 0000 7691 063b 0000 0000
000002d0: 28a3 46bc 7dce dd39 0000 0000 0000 0000
000002e0: 0000 0000 0000 0000 0000 0000 0000 0000
000002f0: 0000 0000 0000 0000 0000 0000 0000 0000
00000300: 0000 0000 0000 0000 bc39 a939 0000 0000
00000310: a908 bdb6 0000 0000 ec29 aab8 0000 0000
00000320: 0000 0000 0000 0000 0000 0000 0000 0000
00000330: 0000 0000 0000 0000 0000 0000 0000 0000
00000340: 0000 0000 0000 0000 2c34 44b8 0000 0000
00000350: 0000 0000 2e31 36ba ef57 1ebb 0000 0000
00000360: 0000 0000 0000 0000 0000 0000 0000 0000
00000370: 0000 0000 0000 0000 0000 0000 0000 0000
00000380: 0000 0000 0000 0000 6841 833a 0000 0000
00000390: 0000 0000 5488 bcb9 3900 ff3b 0000 0000
000003a0: 0000 0000 0000 0000 0000 0000 0000 0000
000003b0: 0000 0000 0000 0000 0000 0000 0000 0000
000003c0: 0000 0000 ec37 d9ba 0000 0000 0000 0000
000003d0: 0000 0000 1cf6 c8ba c1c8 aa3c 0000 0000
000003e0: 0000 0000 0000 0000 0000 0000 0000 0000
000003f0: 0000 0000 0000 0000 0000 0000 0000 0000
0.0 0.0 0.0 0.0 0.0 0.0 0.0 0.0
0.0 0.0 0.0 0.0 0.0 0.0 0.0 0.0
0.02939844 0.0 0.0 0.0 0.0 0.0 0.0 0.0
0.0 0.0 0.0 0.0 0.0 0.0 0.0 0.0
0.0016798417 0.0 0.0 0.0015850078 0.0 0.0 0.0 0.0
0.0 0.0 0.0 0.0 0.0 0.0 0.0 0.0
0.0048480816 0.0 0.0 0.0 0.0 0.0 0.0 0.0
0.0 0.0 0.0 0.0 0.0 0.0 0.0 0.0
-0.027025944 0.0066661225 0.0 0.0 0.0 0.0 -0.0151943695 0.0
0.0 0.0 0.0 0.0 0.0 0.0 0.0 0.0
-0.001959063 0.0 -3.553221e-05 0.0 0.0 0.0 0.0 0.0
0.0 0.0 0.0 0.0 0.0 0.0 0.0 0.0
0.017034294 0.0 0.0 -0.002525071 0.00506482 0.0 0.0 0.0
0.0 0.0 0.0 0.0 0.0 0.0 0.0 0.0
0.0 0.00017726953 4.7385693e-05 -0.0003730641 0.0 0.0 0.0 0.0
0.0 0.0 0.0 0.0 0.0 0.0 0.0 0.0
0.0 0.021939429 0.0 0.0 -0.010109609 0.0 0.009221904 0.0
0.0 0.0 0.0 0.0 0.0 0.0 0.0 0.0
0.0 0.0 0.0 0.006346506 -0.00022003357 -0.000695231 0.0 0.0
0.0 0.0 0.0 0.0 0.0 0.0 0.0 0.0
0.0 0.0016849311 0.0 0.0 -0.0068402616 0.001110198 0.0 0.0
0.0 0.0 0.0 0.0 0.0 0.0 0.0 0.0
0.0 0.0 0.0020533479 0.0 -0.01212386 0.0004230625 0.0 0.0
0.0 0.0 0.0 0.0 0.0 0.0 0.0 0.0
0.0 0.0 0.00032277207 0.0 -5.633647e-06 0.0 -8.11404e-05 0.0
0.0 0.0 0.0 0.0 0.0 0.0 0.0 0.0
0.0 0.0 -4.677863e-05 0.0 0.0 -0.00069500774 -0.00241613 0.0
0.0 0.0 0.0 0.0 0.0 0.0 0.0 0.0
0.0 0.0 0.0010013999 0.0 0.0 -0.00035959727 0.007782009 0.0
0.0 0.0 0.0 0.0 0.0 0.0 0.0 0.0
0.0 -0.0016572452 0.0 0.0 0.0 -0.0015332135 0.02084768 0.0
0.0 0.0 0.0 0.0 0.0 0.0 0.0 0.0
