log/lightning_logs/version_1/checkpoints/epoch=49-step=50.ckpt (torch, 34792 bytes, 41 tensors)

model.rnn_cell.gleak f4 [16]
0.04285367 0.047767315 0.08666464 0.38082552 0.5087894 0.7673917 0.021252647 -0.12472914
0.5300019 0.1839636 0.34108964 -0.097885065 0.4077489 0.24811128 0.31363538 0.47581294
00000000: 5487 2f3d a9a7 433d 3b7d b13d 90fb c23e
00000010: 0640 023f c873 443f 081a ae3c fe71 ffbd
00000020: 34ae 073f f460 3c3e 4da3 ae3e f777 c8bd
00000030: 77c4 d03e e210 7e3e d194 a03e c19d f33e

model.rnn_cell.vleak f4 [16]
0.13430527 -0.1822895 -0.15853673 -0.09964324 -0.30857456 -0.21966684 0.183059 -0.07866953
-0.113774024 0.21827719 -0.14798903 -0.10991352 0.08150986 -0.11363722 -0.13975622 0.024521222
00000000: 5287 093e 19aa 3abe 7457 22be c111 ccbd
00000010: 7cfd 9dbe 58f0 60be d273 3b3e 7e1d a1bd
00000020: 5b02 e9bd 0e84 5f3e 708a 17be 571a e1bd
00000030: a4ee a63d a1ba e8bd 411c 0fbe bbe0 c83c

model.rnn_cell.cm f4 [16]
1.0020602 0.9569729 0.93036586 0.64833826 0.84510565 0.0851172 0.8169848 1.0243373
1.0764 0.99504745 -0.06656211 0.60265005 0.6755448 0.8892897 1.0779755 0.45221493
00000000: 8243 803f 2dfc 743f 752c 6e3f 7ff9 253f
00000010: d858 583f ed51 ae3d ea25 513f 7c1d 833f
00000020: 7ac7 893f 6ebb 7e3f b751 88bd 4647 1a3f
00000030: 81f0 2c3f 7da8 633f 1afb 893f b788 e73e

model.rnn_cell.sigma f4 [16, 16]
3.6020918 4.6187115 5.4397388 3.30083 4.756482 7.571295 7.7424135 7.3534636
6.8597836 4.6226482 6.9018745 3.1826344 7.602007 7.8967533 5.840268 5.9264545
6.2428975 4.3991466 6.6874638 3.5218792 3.9485483 6.0670757 7.9527035 5.523221
6.7399745 3.3432097 3.7682297 5.034041 5.8728933 7.9482694 5.994191 5.7736344
6.358524 7.8960376 3.0500684 6.790477 3.4130018 6.4439774 3.9366536 4.054343
3.8024237 7.559642 4.6693106 4.4322057 3.4260948 4.2486715 5.30853 3.5278778
5.576097 6.8176775 7.5848026 7.963411 7.3587894 6.933403 6.7302704 5.5046673
7.5109596 3.3935013 5.8470902 5.5301113 4.399502 7.5684853 6.9381075 3.221566
5.429012 7.9142566 4.3043795 4.700203 3.72046 5.1243 4.61902 4.7635784
5.0644627 3.131177 3.7348201 7.4121513 5.911851 7.7452836 4.859232 6.758198
5.11639 4.6536236 6.481455 5.2288914 5.498518 7.286123 5.1199183 4.9625816
5.6927443 3.2443144 3.556854 7.2443056 6.5739326 5.6140423 3.9432774 5.621908
6.408979 7.886839 4.0578413 6.554268 4.422621 6.5486326 7.827654 4.11701
6.125945 6.299616 4.4546123 7.214392 5.344885 6.029482 3.2918532 3.9808824
3.9116492 4.5255623 4.180536 3.2077563 4.5300193 3.7526913 5.2260027 6.7899027
4.7325644 6.821274 7.7013416 7.538644 4.5693655 6.159303 6.696954 3.0761552
7.3113475 3.9723866 6.62129 4.893181 3.2095895 7.742592 5.851651 7.2017536
4.0205274 4.9379697 7.8556986 3.5254982 4.0257525 7.015066 3.2949605 3.475323
6.83078 7.3830037 3.6614163 5.180304 7.905278 7.5176415 4.090432 6.2371054
3.7135644 6.0182457 4.1962266 7.841955 4.749973 3.613895 5.5414166 4.574459
3.9626973 4.1956983 3.013087 4.2402325 4.301015 5.9151087 6.9246826 3.1316502
6.169049 7.7054753 3.6646047 5.2247696 3.7549455 4.911565 7.692404 4.7889895
6.6478553 4.209098 3.9385815 7.3604903 5.970726 4.1715555 6.799033 4.6203995
6.9492393 6.143255 4.754263 4.1040277 3.2970142 7.6908765 6.4185066 3.780562
4.484043 6.927133 3.942624 4.534519 4.6337934 7.59601 4.665238 4.733023
7.6831 3.511794 7.5565844 5.7663894 4.983115 7.6739097 7.057509 4.909684
5.4933834 7.343471 4.936447 6.535187 3.941222 6.2033453 5.0693116 6.265296
3.1529584 5.6541777 5.591982 6.2828054 4.266295 3.3012264 4.4449835 3.3304954
3.2935643 6.722005 5.470374 7.0150967 3.119916 3.666991 7.4703655 4.5230284
3.765554 7.5319166 3.188438 3.5655587 6.3355703 5.98227 7.1940517 5.899835
5.757167 6.251231 6.846641 4.080925 7.2920203 4.9367104 6.81753 6.593445
3.561779 3.1126826 3.1885304 4.625743 4.7107573 6.8913574 3.3473468 5.7274547
00000000: ac88 6640 7ccc 9340 5712 ae40 cc40 5340
00000010: 1a35 9840 0c48 f240 dac1 f740 934f eb40
00000020: 5983 db40 bcec 9340 28dc dc40 48b0 4b40
00000030: a443 f340 34b2 fc40 7ae3 ba40 84a5 bd40
00000040: d1c5 c740 cfc5 8c40 b4ff d540 7866 6140
00000050: 04b5 7c40 7c25 c240 8c7c fe40 3abe b040
00000060: dfad d740 26f7 5540 ad2a 7140 dd16 a140
00000070: beee bb40 3958 fe40 6ad0 bf40 9dc1 b840
00000080: 0779 cb40 57ac fc40 5234 4340 964b d940
00000090: 9f6e 5a40 1035 ce40 22f2 7b40 2ebd 8140
000000a0: e95a 7340 96e8 f140 fe6a 9540 a1d4 8d40
000000b0: 2345 5b40 1ef5 8740 7adf a940 c0c8 6140
000000c0: 636f b240 6a2a da40 b4b6 f240 43d4 fe40
000000d0: 347b eb40 70de dd40 605e d740 3c26 b040
000000e0: c859 f040 202f 5940 5d1b bb40 acf6 b040
000000f0: b8c8 8c40 0831 f240 fa04 de40 232e 4e40
00000100: 77ba ad40 9741 fd40 7abd 8940 1068 9640
00000110: 041c 6e40 44fa a340 03cf 9340 3c6f 9840
00000120: 1410 a240 3465 4840 4b07 6f40 5830 ed40
00000130: e22d bd40 5dd9 f740 d47e 9b40 2843 d840
00000140: 78b9 a340 7cea 9440 1468 cf40 1453 a740
00000150: dcf3 af40 eb27 e940 5fd6 a340 78cd 9e40
00000160: f62a b640 d9a2 4f40 7fa3 6340 5ad1 e740
00000170: a85d d240 3ca6 b340 a85e 7c40 ace6 b340
00000180: 5b16 cd40 fc60 fc40 d6d9 8140 90bc d140
00000190: 1c86 8d40 668e d140 247c fa40 8cbe 8340
000001a0: be07 c440 7496 c940 2f8c 8e40 4ddc e640
000001b0: 4c09 ab40 84f1 c040 b9ad 5240 c7c6 7e40
000001c0: 7658 7a40 68d1 9040 f3c6 8540 e14b 4d40
000001d0: ebf5 9040 182c 7040 6a3b a740 e246 d940
000001e0: 2b71 9740 e047 da40 6471 f640 923c f140
000001f0: 3e38 9240 0319 c540 724d d640 badf 4440
00000200: 8ff6 e940 953b 7e40 9ce1 d340 f094 9c40
00000210: ea69 4d40 50c3 f740 ba40 bb40 c474 e640
00000220: 29a8 8040 d903 9e40 e261 fb40 c3a1 6140
00000230: f7d2 8040 6c7b e040 a2e0 5240 b16b 5e40
00000240: c095 da40 9141 ec40 a554 6a40 0dc5 a540
00000250: 0af8 fc40 8590 f040 d2e4 8240 5e96 c740
00000260: 0aab 6d40 7895 c040 7d47 8640 4cf1 fa40
00000270: c7ff 9740 0e4a 6740 4953 b140 f861 9240
00000280: d59c 7d40 2943 8640 6bd6 4040 fcaf 8740
00000290: eaa1 8940 9248 bd40 0097 dd40 f56c 4840
000002a0: d968 c540 4193 f640 e288 6a40 5031 a740
000002b0: 0751 7040 8a2b 9d40 2c28 f640 673f 9940
000002c0: 3bbb d440 eeb0 8640 b811 7c40 2389 eb40
000002d0: 3010 bf40 627d 8540 ae91 d940 50da 9340
000002e0: 2b60 de40 8c95 c440 ec22 9840 3254 8340
000002f0: 4802 5340 a91b f640 6864 cd40 baf4 7140
00000300: 487d 8f40 13ab dd40 f453 7c40 c81a 9140
00000310: 0948 9440 8412 f340 a149 9540 ed74 9740
00000320: f5db f540 3cc1 6040 8acf f140 4386 b840
00000330: ae75 9f40 ab90 f540 1dd7 e140 221c 9d40
00000340: ccc9 af40 b7fd ea40 60f7 9d40 4020 d140
00000350: fb3c 7c40 ce81 c640 cd37 a240 4e7d c840
00000360: 12ca 4940 06ef b440 84f1 b240 be0c c940
00000370: 7d85 8840 4b47 5340 4e3d 8e40 d626 5540
00000380: c2c9 5240 aa1a d740 4e0d af40 ac7b e040
00000390: b4ac 4740 fbaf 6a40 3c0d ef40 a6bc 9040
000003a0: d6fe 7040 7605 f140 5e0f 4c40 1d32 6440
000003b0: febc ca40 c16e bf40 ac35 e640 73cb bc40
000003c0: b63a b840 160a c840 af17 db40 f096 8240
000003d0: 3b58 e940 88f9 9d40 3529 da40 80fd d240
000003e0: 30f4 6340 3136 4740 e210 4c40 1606 9440
000003f0: 86be 9640 0086 dc40 ee3a 5640 4f47 b740

model.rnn_cell.mu f4 [16, 16]
0.46515414 0.69038284 0.39815992 0.562497 0.48049635 0.6485721 0.5370723 0.6888375
0.31712222 0.5915409 0.7213285 0.37391108 0.5485036 0.62337875 0.5468558 0.67772806
0.45992804 0.66882956 0.69941914 0.6159155 0.44743732 0.44193944 0.64373785 0.44902194
0.30137897 0.37397358 0.3596627 0.7884151 0.72238696 0.7312673 0.6842965 0.5570423
0.28861976 0.7750129 0.53248155 0.3762934 0.3117579 0.48357007 0.6163889 0.48422658
0.4095953 0.38098213 0.40674886 0.43692714 0.31594452 0.76761895 0.57685024 0.6145518
0.66807926 0.7961749 0.34164095 0.4378798 0.30653924 0.34962994 0.42045036 0.41157538
0.3950814 0.3490636 0.54312575 0.6916019 0.67694175 0.73524064 0.6429637 0.5916181
0.9162451 0.30394617 0.3859689 0.6294093 0.6592009 0.50978667 0.28002834 0.44076753
0.7945061 0.6779957 0.3484988 0.46233818 0.4046243 0.4225522 0.35285875 0.5506934
0.41303718 0.67681944 0.49413073 0.31666324 0.42014652 0.77206373 0.6543671 0.6414881
0.70159996 0.6988518 0.3966948 0.4003514 0.3651071 0.4083252 0.5097133 0.7344387
0.28662205 0.36520976 0.317252 0.678506 0.013646968 0.6917304 0.66495776 0.6720626
0.40426877 0.45596632 0.3958514 0.53670716 0.43978783 0.48678187 0.54415154 0.55393016
0.45086244 0.6507657 0.44278124 0.6220258 0.34747857 0.5563258 0.55737394 0.43680534
0.31224775 0.44277462 0.72244686 0.41854477 0.46669975 0.5098833 0.35440114 0.52147686
0.74294746 0.3559441 0.57698655 0.42357525 0.59489816 0.37390798 0.33457658 0.47962427
0.58598423 0.507465 0.7892152 0.5007266 0.42195156 0.64175826 0.5806327 0.7290964
0.653213 0.4209757 0.6563382 0.94656605 0.22273779 0.5834503 0.7055088 0.3453285
0.5930729 0.33485126 0.7015007 0.5859059 0.61327773 0.6471086 0.5985284 0.52109087
0.62783414 0.43671072 0.44243538 0.4914733 0.697214 0.4558538 0.69334686 0.41431937
0.38140547 0.67498 0.53052175 0.3112949 0.6260136 0.6671494 0.3983193 0.47178987
0.31456777 0.7415792 0.44872323 0.3689527 1.0185908 0.5395525 0.5432571 0.4629489
0.7389965 0.3346592 0.48597527 0.76112944 0.4828906 0.32479706 0.33650035 0.6483099
0.7840924 0.5484215 0.82330734 0.379059 0.7498548 0.6118379 0.3312349 0.72639537
0.62126505 0.74890816 0.536386 0.64432245 0.5884719 0.34393886 0.67856866 0.7335936
0.63160414 0.6699641 0.5007347 0.59077287 0.6347332 0.45140013 0.8673239 0.47644082
0.7766814 0.4128294 0.46006548 0.7527538 0.7843889 0.596683 0.78392917 0.62735766
0.5584057 0.5700438 0.524872 0.7047365 0.62137747 0.6047304 0.7504748 0.75438255
0.66406107 0.71631575 0.7407905 0.6649227 0.49925274 0.587316 0.32213795 0.5565258
0.40891972 0.76319134 0.76520777 0.5977722 0.7525407 0.5881203 0.5223419 0.70461106
0.7157208 0.3704878 0.65381825 0.7544416 0.39551446 0.65837 0.5778015 0.5825434
00000000: af28 ee3e eebc 303f 9edb cb3e ceff 0f3f
00000010: 9e03 f63e d208 263f 927d 093f a857 303f
00000020: d85d a23e 396f 173f fca8 383f 4671 bf3e
00000030: bb6a 0c3f c095 1f3f befe 0b3f 967f 2d3f
00000040: b07b eb3e 6a38 2b3f 220d 333f a3ac 1d3f
00000050: 8116 e53e e345 e23e 01cc 243f 34e6 e53e
00000060: 584e 9a3e 7779 bf3e b625 b83e 92d5 493f
00000070: 5aee 383f 5534 3b3f 0e2e 2f3f 539a 0e3f
00000080: f8c5 933e 3f67 463f b650 083f 87a9 c03e
00000090: bb9e 9f3e 7f96 f73e aacb 1d3f 8cec f73e
000000a0: 7ab6 d13e 1710 c33e 6341 d03e eab4 df3e
000000b0: 7bc3 a13e ad82 443f 75ac 133f 4453 1d3f
000000c0: 3e07 2b3f 1ed2 4b3f 90eb ae3e c831 e03e
000000d0: b6f2 9c3e b202 b33e 4545 d73e 02ba d23e
000000e0: 1c48 ca3e 77b8 b23e 4a0a 0b3f d20c 313f
000000f0: 0e4c 2d3f bb38 3c3f 4599 243f 4974 173f
00000100: 0a8f 6a3f d59e 9b3e b79d c53e f820 213f
00000110: 64c1 283f 6181 023f e05f 8f3e 48ac e13e
00000120: c064 4b3f 2091 2d3f 6f6e b23e 97b7 ec3e
00000130: eb2a cf3e c358 d83e e7a9 b43e 3efa 0c3f
00000140: 9c79 d33e 0a44 2d3f b4fe fc3e af21 a23e
00000150: 721d d73e f8a5 453f 9a84 273f 9038 243f
00000160: 0e9c 333f f4e7 323f 951b cb3e dcfa cc3e
00000170: 51ef ba3e 0010 d13e 927c 023f 2d04 3c3f
00000180: 20c0 923e c6fc ba3e db6e a23e 92b2 2d3f
00000190: 8897 5f3c 3e15 313f ac3a 2a3f 4b0c 2c3f
000001a0: 51fc ce3e 6b74 e93e 09ad ca3e a465 093f
000001b0: df2b e13e 793b f93e 844d 0b3f 5ece 0d3f
000001c0: 71d7 e63e 9598 263f 39b4 e23e 153d 1f3f
000001d0: b6e8 b13e 5e6b 0e3f 0fb0 0e3f f3a4 df3e
000001e0: f0de 9f3e 5bb3 e23e 47f2 383f 804b d63e
000001f0: 45f3 ee3e b687 023f 1174 b53e 827f 053f
00000200: ce31 3e3f 4e3e b63e 64b5 133f dbde d83e
00000210: 3f4b 183f de70 bf3e 9f4d ab3e 5091 f53e
00000220: 1003 163f 3ae9 013f 020a 4a3f 9e2f 003f
00000230: 090a d83e 454a 243f 58a4 143f 10a6 3a3f
00000240: f838 273f 208a d73e c805 283f 2752 723f
00000250: 6015 643e 005d 153f 3a9c 343f e6ce b03e
00000260: a0d3 173f a071 ab3e 8d95 333f eefd 153f
00000270: c5ff 1c3f e9a8 253f 2839 193f 3666 053f
00000280: bdb9 203f 8c98 df3e e486 e23e 63a2 fb3e
00000290: 9e7c 323f ab65 e93e 2e7f 313f ab21 d43e
000002a0: 9447 c33e 7dcb 2c3f 46d0 073f 0c62 9f3e
000002b0: 6d42 203f 4eca 2a3f 82f0 cb3e 718e f13e
000002c0: 070f a13e 22d8 3d3f 0dbf e53e 5ee7 bc3e
000002d0: 2f61 823f 1d20 0a3f e612 0b3f a307 ed3e
000002e0: e02e 3d3f 7358 ab3e c0d1 f83e 61d9 423f
000002f0: 703d f73e cd4b a63e c649 ac3e a3f7 253f
00000300: 48ba 483f 5a65 0c3f 45c4 523f 0514 c23e
00000310: 7cf6 3f3f 69a1 1c3f 9f97 a93e 0cf5 393f
00000320: 3a0b 1f3f 72b8 3f3f 9850 093f 51f2 243f
00000330: 18a6 163f c118 b03e adb6 2d3f cacc 3b3f
00000340: cfb0 213f c482 2b3f 2630 003f e43c 173f
00000350: e07d 223f eb1d e73e f008 5e3f 0df0 f33e
00000360: 98d4 463f 605e d33e b48d eb3e 79b4 403f
00000370: b6cd 483f 38c0 183f 95af 483f 839a 203f
00000380: adf3 0e3f 64ee 113f 035e 063f 9c69 343f
00000390: 9812 1f3f 9dcf 1a3f 1e1f 403f 371f 413f
000003a0: e8ff 293f 7860 373f 72a4 3d3f 6038 2a3f
000003b0: 0e9e ff3e 575a 163f 44ef a43e 7a78 0e3f
000003c0: ed5d d13e 8260 433f a8e4 433f 9907 193f
000003d0: 82a6 403f 0d8f 163f 33b8 053f 6461 343f
000003e0: 7a39 373f 94b0 bd3e a260 273f 1623 413f
000003f0: df80 ca3e f08a 283f cdea 133f 9021 153f

model.rnn_cell.w f4 [16, 16]
0.65388244 0.11041485 0.96070087 0.48550132 0.48968965 0.57027787 0.5602936 0.3868711
0.78077245 0.31479514 0.17595084 0.6665241 0.96722883 0.62504363 0.92501485 0.4085122
1.1165107 0.87741697 0.44044042 0.09192177 0.2438211 0.4463334 0.5586036 0.2301192
0.4142898 0.12383374 0.8086894 0.772602 0.7584727 0.56209105 0.6980989 0.465087
1.1632496 0.9763588 0.74949855 0.9455702 0.89574915 0.43146276 0.24979985 0.022159033
0.76118153 0.12117827 0.18621652 0.9998972 0.7911919 0.6824739 0.17100914 0.95880425
0.66260386 0.43266627 0.33873028 0.5747129 0.4213054 0.95438117 0.66186774 0.8757983
0.2171769 0.8824905 0.3045306 0.7347872 0.42665216 0.90383655 0.3756532 0.67586166
0.4756349 1.1580683 0.72597265 0.22734624 0.8425535 0.08102437 0.8920849 0.34849477
0.61987156 0.33197752 0.29701674 0.06419747 0.7118549 0.08538718 0.0198076 0.51130503
0.48506185 0.27649274 0.669011 0.07299621 0.25587383 0.2954042 0.35921437 0.5721607
0.59452575 0.7659135 0.65930957 0.63852525 0.39974275 0.83962077 0.25540647 0.7759647
1.30839 0.26958254 0.7358271 -0.2993096 1.2913575 0.7077284 0.9812922 0.9513888
0.013546557 0.16864781 0.31326753 0.34307742 0.4649441 0.3612847 0.42761514 0.88519216
0.2962691 0.1909509 1.1061643 0.7334607 0.027283955 0.5547258 0.37620705 0.8753496
0.6816965 0.25540224 0.6564475 0.54944557 0.68772733 0.3388694 0.82651436 0.3499234
0.528871 0.30931154 0.035739407 0.23982999 0.5806636 0.7300738 0.84602606 0.94712085
0.91548896 0.74054843 0.9282108 0.22576098 0.027003678 0.5810622 0.71075433 0.70882624
0.6885896 0.9867469 0.39517316 0.41986322 1.2239463 0.7604741 0.218883 0.9435137
0.7398351 0.79669905 0.019338861 0.41105196 0.56179965 0.45400223 0.10511844 0.19872306
0.847759 0.0078419745 0.89698195 0.24381974 0.514373 1.1545838 0.9497151 0.64380383
0.31572077 0.821869 0.039942216 0.11592211 0.77514035 0.43921605 0.98961705 0.2602251
0.86112 0.25934562 0.78045976 0.2565068 0.48395455 0.49766806 0.7662624 0.03325352
0.9759889 0.096966125 0.54764307 0.83338434 0.43977663 0.0074464655 0.99034315 0.69545466
0.23923424 0.7693389 0.20360792 0.19935139 1.0268226 0.49230564 1.1057892 0.80994684
0.86707497 0.12132303 0.6418098 0.84312224 0.43309942 0.09072801 0.6615682 0.8845553
0.47773865 0.39968666 0.65490776 0.34543994 0.3321142 0.3036268 0.7871242 0.7900498
0.40971196 0.91966283 0.45224917 0.44080538 0.2580299 0.8740394 0.22768304 0.15805946
0.5059374 0.09873479 0.7827052 0.9271661 0.6101653 0.46497133 0.22072263 0.47781095
0.30853572 0.47449797 0.32366586 0.8116112 0.3115933 0.8580326 0.37650663 0.5594789
0.46346155 1.1681559 0.45861226 0.52117115 0.6774023 0.023825776 0.45178133 0.28409752
0.026348265 0.24825412 0.18680096 0.16564687 0.26312125 0.27041546 0.44433573 0.035384223
00000000: d764 273f 2e21 e23d 7ef0 753f a193 f83e
00000010: 9ab8 fa3e bbfd 113f 676f 0f3f f813 c63e
00000020: b4e0 473f d42c a13e 752c 343e 53a1 2a3f
00000030: 4f9c 773f dc02 203f c6cd 6c3f 8328 d13e
00000040: d3e9 8e3f 669e 603f 6881 e13e 7b41 bc3d
00000050: 3dac 793e d085 e43e a500 0f3f 5ea4 6b3e
00000060: cb1d d43e 8b9c fd3d 4506 4f3f 3fc9 453f
00000070: 442b 423f 33e5 0f3f 9cb6 323f e21f ee3e
00000080: 5de5 943f a6f2 793f 23df 3f3f e310 723f
00000090: d14f 653f b0e8 dc3e 88cb 7f3e dc86 b53c
000000a0: cbdc 423f 502c f83d 8baf 3e3e 43f9 7f3f
000000b0: 8d8b 4a3f 9cb6 2e3f 051d 2f3e 3274 753f
000000c0: 68a0 293f 6f86 dd3e 0e6e ad3e 6220 133f
000000d0: 57b5 d73e 5352 743f 2a70 293f 5134 603f
000000e0: 9f63 5e3e e6ea 613f 6feb 9b3e 041b 3c3f
000000f0: 2772 da3e d561 673f 9e55 c03e 4505 2d3f
00000100: 6b86 f33e 953b 943f 58d9 393f 74cd 683e
00000110: 96b1 573f 1bf0 a53d ad5f 643f e86d b23e
00000120: e7af 1e3f f5f8 a93e 9412 983e f779 833d
00000130: 1f3c 363f 79df ae3d 8c43 a23c e3e4 023f
00000140: 075a f83e 7590 8d3e 4e44 2b3f 097f 953d
00000150: e501 833e 383f 973e f2ea b73e 2079 123f
00000160: d732 183f e812 443f 83c8 283f 6476 233f
00000170: 15ab cc3e 63f1 563f a3c4 823e 9fa5 463f
00000180: 5379 a73f b906 8a3e 2a5f 3c3f 1c3f 99be
00000190: 344b a53f b02d 353f f735 7b3f 378e 733f
000001a0: 61f2 5d3c 03b2 2c3e 9a64 a03e d8a7 af3e
000001b0: 270d ee3e 4ffa b83e 5ff0 da3e f49b 623f
000001c0: 95b0 973e a288 433e cb96 8d3f 15c4 3b3f
000001d0: 9a82 df3c 8302 0e3f 369e c03e e916 603f
000001e0: a983 2e3f 15c4 823e f20c 283f 77a8 0c3f
000001f0: e60e 303f 4a80 ad3e 7296 533f 2929 b33e
00000200: 1764 073f 155e 9e3e 7c63 123d fe95 753e
00000210: 5fa6 143f 1ee6 3a3f 2a95 583f 8376 723f
00000220: 7c5d 6a3f 9594 3d3f 399f 6d3f e32d 673e
00000230: d136 dd3c 7ec0 143f fff3 353f a375 353f
00000240: 6847 303f 729b 7c3f 2354 ca3e 50f8 d63e
00000250: 46aa 9c3f 6eae 423f dd22 603e 1d8a 713f
00000260: d565 3d3f 78f4 4b3f 886c 9e3c 6775 d23e
00000270: 1ad2 0f3f fb72 e83e 5648 d73d 0f7e 4b3e
00000280: bc06 593f a07b 003c 9ca0 653f e2ab 793e
00000290: f3ad 033f 67c9 933f 8720 733f 54d0 243f
000002a0: 27a6 a13e 0266 523f 739a 233d 9268 ed3d
000002b0: 996f 463f ede0 e03e 8b57 7d3f 393c 853e
000002c0: 5c72 5c3f f3c8 843e 36cc 473f dc54 833e
000002d0: e4c8 f73e 59ce fe3e c629 443f d834 083d
000002e0: 69da 793f 2d96 c63d 5632 0c3f ad58 553f
000002f0: 672a e13e 7b01 f43b 2187 7d3f 5109 323f
00000300: d2f9 743e 65f3 443f 987e 503e c522 4c3e
00000310: ec6e 833f 7c0f fc3e 808a 8d3f ad58 4f3f
00000320: a0f8 5d3f 3578 f83d a64d 243f dcd6 573f
00000330: 35bf dd3e 9bcf b93d 895c 293f 3772 623f
00000340: 299a f43e bba3 cc3e 09a8 273f 81dd b03e
00000350: df0a aa3e f974 9b3e f980 493f b440 4a3f
00000360: c4c5 d13e 066f 6b3f 348d e73e 3eb1 e13e
00000370: 7f1c 843e 0cc1 5f3f be25 693e 57da 213e
00000380: 1d85 013f 7735 ca3d 5e5f 483f c25a 6d3f
00000390: cb33 1c3f b910 ee3e 1d05 623e a3a3 f43e
000003a0: 65f8 9d3e 66f1 f23e 88b7 a53e c0c5 4f3f
000003b0: 2889 9f3e 06a8 5b3f 7ac5 c03e 023a 0f3f
000003c0: d54a ed3e 2286 953f 3acf ea3e 796b 053f
000003d0: 3d6a 2d3f 462e c33c e24f e73e 3b75 913e
000003e0: 51d8 d73c 5436 7e3e c048 3f3e 559f 293e
000003f0: d4b7 863e e573 8a3e f97f e33e 0cef 103d

model.rnn_cell.erev f4 [16, 16]
0.0 0.0 0.0 0.0 0.0 0.0 0.0 0.0
0.0 0.0 0.0 0.0 0.0 0.0 0.0 0.0
-1.381257 0.0 0.0 0.0 0.0 0.0 0.0 0.0
0.0 0.0 0.0 0.0 0.0 0.0 0.0 0.0
1.3784404 0.0 0.0 1.3592093 0.0 0.0 0.0 0.0
0.0 0.0 0.0 0.0 0.0 0.0 0.0 0.0
0.9479681 0.0 0.0 0.0 0.0 0.0 0.0 0.0
0.0 0.0 0.0 0.0 0.0 0.0 0.0 0.0
0.74007326 1.3352163 0.0 0.0 0.0 0.0 -1.21223 0.0
0.0 0.0 0.0 0.0 0.0 0.0 0.0 0.0
0.9712787 0.0 0.89420617 0.0 0.0 0.0 0.0 0.0
0.0 0.0 0.0 0.0 0.0 0.0 0.0 0.0
-1.4442983 0.0 0.0 0.66967607 -1.412768 0.0 0.0 0.0
0.0 0.0 0.0 0.0 0.0 0.0 0.0 0.0
0.0 0.8838736 -1.2107843 0.80083627 0.0 0.0 0.0 0.0
0.0 0.0 0.0 0.0 0.0 0.0 0.0 0.0
0.0 -1.1238111 0.0 0.0 -0.9237179 0.0 -1.3286312 0.0
0.0 0.0 0.0 0.0 0.0 0.0 0.0 0.0
0.0 0.0 0.0 0.81121624 1.4431164 1.068132 0.0 0.0
0.0 0.0 0.0 0.0 0.0 0.0 0.0 0.0
0.0 1.1275144 0.0 0.0 1.1732011 -1.3447388 0.0 0.0
0.0 0.0 0.0 0.0 0.0 0.0 0.0 0.0
0.0 0.0 1.2446804 0.0 0.7019007 -1.1304094 0.0 0.0
0.0 0.0 0.0 0.0 0.0 0.0 0.0 0.0
0.0 0.0 0.8601843 0.0 1.27797 0.0 -1.244361 0.0
0.0 0.0 0.0 0.0 0.0 0.0 0.0 0.0
0.0 0.0 1.0693262 0.0 0.0 -0.9484466 -0.86626875 0.0
0.0 0.0 0.0 0.0 0.0 0.0 0.0 0.0
0.0 0.0 -1.2771981 0.0 0.0 0.8502439 1.1178563 0.0
0.0 0.0 0.0 0.0 0.0 0.0 0.0 0.0
0.0 1.2594069 0.0 0.0 0.0 0.8343071 1.3366857 0.0
0.0 0.0 0.0 0.0 0.0 0.0 0.0 0.0
00000000: 0000 0000 0000 0000 0000 0000 0000 0000
00000010: 0000 0000 0000 0000 0000 0000 0000 0000
00000020: 0000 0000 0000 0000 0000 0000 0000 0000
00000030: 0000 0000 0000 0000 0000 0000 0000 0000
00000040: 08cd b0bf 0000 0000 0000 0000 0000 0000
00000050: 0000 0000 0000 0000 0000 0000 0000 0000
00000060: 0000 0000 0000 0000 0000 0000 0000 0000
00000070: 0000 0000 0000 0000 0000 0000 0000 0000
00000080: bc70 b03f 0000 0000 0000 0000 92fa ad3f
00000090: 0000 0000 0000 0000 0000 0000 0000 0000
000000a0: 0000 0000 0000 0000 0000 0000 0000 0000
000000b0: 0000 0000 0000 0000 0000 0000 0000 0000
000000c0: 0aae 723f 0000 0000 0000 0000 0000 0000
000000d0: 0000 0000 0000 0000 0000 0000 0000 0000
000000e0: 0000 0000 0000 0000 0000 0000 0000 0000
000000f0: 0000 0000 0000 0000 0000 0000 0000 0000
00000100: 7175 3d3f 5ee8 aa3f 0000 0000 0000 0000
00000110: 0000 0000 0000 0000 5a2a 9bbf 0000 0000
00000120: 0000 0000 0000 0000 0000 0000 0000 0000
00000130: 0000 0000 0000 0000 0000 0000 0000 0000
00000140: b9a5 783f 0000 0000 b2ea 643f 0000 0000
00000150: 0000 0000 0000 0000 0000 0000 0000 0000
00000160: 0000 0000 0000 0000 0000 0000 0000 0000
00000170: 0000 0000 0000 0000 0000 0000 0000 0000
00000180: c4de b8bf 0000 0000 0000 0000 e46f 2b3f
00000190: 95d5 b4bf 0000 0000 0000 0000 0000 0000
000001a0: 0000 0000 0000 0000 0000 0000 0000 0000
000001b0: 0000 0000 0000 0000 0000 0000 0000 0000
000001c0: 0000 0000 8a45 623f fbfa 9abf 9b03 4d3f
000001d0: 0000 0000 0000 0000 0000 0000 0000 0000
000001e0: 0000 0000 0000 0000 0000 0000 0000 0000
000001f0: 0000 0000 0000 0000 0000 0000 0000 0000
00000200: 0000 0000 0bd9 8fbf 0000 0000 0000 0000
00000210: c778 6cbf 0000 0000 9610 aabf 0000 0000
00000220: 0000 0000 0000 0000 0000 0000 0000 0000
00000230: 0000 0000 0000 0000 0000 0000 0000 0000
00000240: 0000 0000 0000 0000 0000 0000 deab 4f3f
00000250: 0ab8 b83f 8db8 883f 0000 0000 0000 0000
00000260: 0000 0000 0000 0000 0000 0000 0000 0000
00000270: 0000 0000 0000 0000 0000 0000 0000 0000
00000280: 0000 0000 6452 903f 0000 0000 0000 0000
00000290: 742b 963f 6720 acbf 0000 0000 0000 0000
000002a0: 0000 0000 0000 0000 0000 0000 0000 0000
000002b0: 0000 0000 0000 0000 0000 0000 0000 0000
000002c0: 0000 0000 0000 0000 b051 9f3f 0000 0000
000002d0: c4af 333f 41b1 90bf 0000 0000 0000 0000
000002e0: 0000 0000 0000 0000 0000 0000 0000 0000
000002f0: 0000 0000 0000 0000 0000 0000 0000 0000
00000300: 0000 0000 0000 0000 0a35 5c3f 0000 0000
00000310: 8594 a33f 0000 0000 3947 9fbf 0000 0000
00000320: 0000 0000 0000 0000 0000 0000 0000 0000
00000330: 0000 0000 0000 0000 0000 0000 0000 0000
00000340: 0000 0000 0000 0000 aedf 883f 0000 0000
00000350: 0000 0000 65cd 72bf cac3 5dbf 0000 0000
00000360: 0000 0000 0000 0000 0000 0000 0000 0000
00000370: 0000 0000 0000 0000 0000 0000 0000 0000
00000380: 0000 0000 0000 0000 3a7b a3bf 0000 0000
00000390: 0000 0000 96a9 593f ea15 8f3f 0000 0000
000003a0: 0000 0000 0000 0000 0000 0000 0000 0000
000003b0: 0000 0000 0000 0000 0000 0000 0000 0000
000003c0: 0000 0000 3f34 a13f 0000 0000 0000 0000
000003d0: 0000 0000 2695 553f 8418 ab3f 0000 0000
000003e0: 0000 0000 0000 0000 0000 0000 0000 0000
000003f0: 0000 0000 0000 0000 0000 0000 0000 0000

model.rnn_cell.sensory_sigma f4 [2, 16]
7.773628 6.3498993 5.9329147 6.065704 5.974147 6.9241714 3.158464 4.6048126
6.9490385 6.203564 4.5133286 7.482642 6.9269595 3.0410337 8.263918 5.136185
6.3112698 3.2409348 6.7966156 5.60755 3.1584716 5.2911124 3.8166466 5.512901
7.577191 7.4951444 6.443191 3.98127 4.805749 4.8667502 7.371032 4.0067244
00000000: 90c1 f840 6032 cb40 70da bd40 3f1a c240
00000010: 362c bf40 d092 dd40 4624 4a40 a05a 9340
00000020: 865e de40 9983 c640 306d 9040 ce71 ef40
00000030: a7a9 dd40 4ca0 4240 0239 0441 a15b a440
00000040: ecf5 c940 7a6b 4f40 e07d d940 0d71 b340
00000050: 6624 4a40 cb50 a940 f043 7440 af69 b040
00000060: 5978 f240 39d8 ef40 9f2e ce40 21cd 7e40
00000070: b2c8 9940 6bbc 9b40 7fdf eb40 1637 8040

model.rnn_cell.sensory_mu f4 [2, 16]
0.5773762 0.71755373 0.44547188 0.63320184 0.36121657 0.43937403 0.7004663 0.7859642
0.60791516 0.2561176 0.7763138 -0.1321303 0.73570347 0.53972876 0.89645785 0.47093904
0.6257527 0.70921385 0.49453828 0.31823346 0.6413249 0.55358857 0.7029562 1.1085159
0.8735813 0.5443613 0.026964338 0.5000546 0.37629342 0.04310072 0.32950518 0.22578211
00000000: edce 133f 9ab1 373f e414 e43e 8419 223f
00000010: 61f1 b83e a2f5 e03e c251 333f f334 493f
00000020: 54a0 1b3f d921 833e 80bc 463f 2a4d 07be
00000030: 1057 3c3f aa2b 0a3f 437e 653f ec1e f13e
00000040: 5431 203f 0a8f 353f 1f34 fd3e 7fef a23e
00000050: de2d 243f fbb7 0d3f f0f4 333f d9e3 8d3f
00000060: 06a3 5f3f 435b 0b3f 51e4 dc3c 9403 003f
00000070: 88a9 c03e 618a 303d e7b4 a83e 6d33 673e

model.rnn_cell.sensory_w f4 [2, 16]
0.6712107 0.6364469 0.28973353 0.7804861 0.18300067 0.61082566 0.7314316 0.64534426
0.67376465 0.33484986 0.46651396 0.83474284 0.83158994 0.73205125 0.123244815 0.8801111
0.5183929 0.9278437 0.963001 0.503727 0.99003726 0.29568964 0.52966726 -0.13701856
0.3105963 0.54034555 1.0454677 0.079473816 0.9331205 0.39588958 0.33023125 0.5472473
00000000: 77d4 2b3f 2fee 223f f457 943e f0cd 473f
00000010: 8764 3b3e 125f 1c3f 1a3f 3b3f 4835 253f
00000020: d77b 2c3f 7171 ab3e ebda ee3e b5b1 553f
00000030: 14e3 543f b667 3b3f c767 fc3d f64e 613f
00000040: 66b5 043f 2a87 6d3f 3c87 763f 41f4 003f
00000050: 1573 7d3f a264 973e 4698 073f 984e 0cbe
00000060: 7a06 9f3e 1654 0a3f e3d1 853f 2bc3 a23d
00000070: fce0 6e3f 0ab2 ca3e 1214 a93e 6618 0c3f

model.rnn_cell.sensory_erev f4 [2, 16]
0.0 0.0 0.0 0.0 0.0 0.0 0.0 0.0
0.0 -1.3218029 0.920014 1.1847824 -1.1146514 0.0 1.1751611 1.2269142
0.0 0.0 0.0 0.0 0.0 0.0 0.0 -1.0810963
1.145155 0.0 1.3047143 0.0 0.0 -1.1657594 0.0 -1.4029665
00000000: 0000 0000 0000 0000 0000 0000 0000 0000
00000010: 0000 0000 0000 0000 0000 0000 0000 0000
00000020: 0000 0000 d630 a9bf 0a86 6b3f f3a6 973f
00000030: e6ac 8ebf 0000 0000 ae6b 963f 860b 9d3f
00000040: 0000 0000 0000 0000 0000 0000 0000 0000
00000050: 0000 0000 0000 0000 0000 0000 5d61 8abf
00000060: 7094 923f 0000 0000 e100 a73f 0000 0000
00000070: 0000 0000 9b37 95bf 0000 0000 6894 b3bf

model.rnn_cell.sparsity_mask f4 [16, 16]
0.0 0.0 0.0 0.0 0.0 0.0 0.0 0.0
0.0 0.0 0.0 0.0 0.0 0.0 0.0 0.0
1.0 0.0 0.0 0.0 0.0 0.0 0.0 0.0
0.0 0.0 0.0 0.0 0.0 0.0 0.0 0.0
1.0 0.0 0.0 1.0 0.0 0.0 0.0 0.0
0.0 0.0 0.0 0.0 0.0 0.0 0.0 0.0
1.0 0.0 0.0 0.0 0.0 0.0 0.0 0.0
0.0 0.0 0.0 0.0 0.0 0.0 0.0 0.0
1.0 1.0 0.0 0.0 0.0 0.0 1.0 0.0
0.0 0.0 0.0 0.0 0.0 0.0 0.0 0.0
1.0 0.0 1.0 0.0 0.0 0.0 0.0 0.0
0.0 0.0 0.0 0.0 0.0 0.0 0.0 0.0
1.0 0.0 0.0 1.0 1.0 0.0 0.0 0.0
0.0 0.0 0.0 0.0 0.0 0.0 0.0 0.0
0.0 1.0 1.0 1.0 0.0 0.0 0.0 0.0
0.0 0.0 0.0 0.0 0.0 0.0 0.0 0.0
0.0 1.0 0.0 0.0 1.0 0.0 1.0 0.0
0.0 0.0 0.0 0.0 0.0 0.0 0.0 0.0
0.0 0.0 0.0 1.0 1.0 1.0 0.0 0.0
0.0 0.0 0.0 0.0 0.0 0.0 0.0 0.0
0.0 1.0 0.0 0.0 1.0 1.0 0.0 0.0
0.0 0.0 0.0 0.0 0.0 0.0 0.0 0.0
0.0 0.0 1.0 0.0 1.0 1.0 0.0 0.0
0.0 0.0 0.0 0.0 0.0 0.0 0.0 0.0
0.0 0.0 1.0 0.0 1.0 0.0 1.0 0.0
0.0 0.0 0.0 0.0 0.0 0.0 0.0 0.0
0.0 0.0 1.0 0.0 0.0 1.0 1.0 0.0
0.0 0.0 0.0 0.0 0.0 0.0 0.0 0.0
0.0 0.0 1.0 0.0 0.0 1.0 1.0 0.0
0.0 0.0 0.0 0.0 0.0 0.0 0.0 0.0
0.0 1.0 0.0 0.0 0.0 1.0 1.0 0.0
0.0 0.0 0.0 0.0 0.0 0.0 0.0 0.0
00000000: 0000 0000 0000 0000 0000 0000 0000 0000
00000010: 0000 0000 0000 0000 0000 0000 0000 0000
00000020: 0000 0000 0000 0000 0000 0000 0000 0000
00000030: 0000 0000 0000 0000 0000 0000 0000 0000
00000040: 0000 803f 0000 0000 0000 0000 0000 0000
00000050: 0000 0000 0000 0000 0000 0000 0000 0000
00000060: 0000 0000 0000 0000 0000 0000 0000 0000
00000070: 0000 0000 0000 0000 0000 0000 0000 0000
00000080: 0000 803f 0000 0000 0000 0000 0000 803f
00000090: 0000 0000 0000 0000 0000 0000 0000 0000
000000a0: 0000 0000 0000 0000 0000 0000 0000 0000
000000b0: 0000 0000 0000 0000 0000 0000 0000 0000
000000c0: 0000 803f 0000 0000 0000 0000 0000 0000
000000d0: 0000 0000 0000 0000 0000 0000 0000 0000
000000e0: 0000 0000 0000 0000 0000 0000 0000 0000
000000f0: 0000 0000 0000 0000 0000 0000 0000 0000
00000100: 0000 803f 0000 803f 0000 0000 0000 0000
00000110: 0000 0000 0000 0000 0000 803f 0000 0000
00000120: 0000 0000 0000 0000 0000 0000 0000 0000
00000130: 0000 0000 0000 0000 0000 0000 0000 0000
00000140: 0000 803f 0000 0000 0000 803f 0000 0000
00000150: 0000 0000 0000 0000 0000 0000 0000 0000
00000160: 0000 0000 0000 0000 0000 0000 0000 0000
00000170: 0000 0000 0000 0000 0000 0000 0000 0000
00000180: 0000 803f 0000 0000 0000 0000 0000 803f
00000190: 0000 803f 0000 0000 0000 0000 0000 0000
000001a0: 0000 0000 0000 0000 0000 0000 0000 0000
000001b0: 0000 0000 0000 0000 0000 0000 0000 0000
000001c0: 0000 0000 0000 803f 0000 803f 0000 803f
000001d0: 0000 0000 0000 0000 0000 0000 0000 0000
000001e0: 0000 0000 0000 0000 0000 0000 0000 0000
000001f0: 0000 0000 0000 0000 0000 0000 0000 0000
00000200: 0000 0000 0000 803f 0000 0000 0000 0000
00000210: 0000 803f 0000 0000 0000 803f 0000 0000
00000220: 0000 0000 0000 0000 0000 0000 0000 0000
00000230: 0000 0000 0000 0000 0000 0000 0000 0000
00000240: 0000 0000 0000 0000 0000 0000 0000 803f
00000250: 0000 803f 0000 803f 0000 0000 0000 0000
00000260: 0000 0000 0000 0000 0000 0000 0000 0000
00000270: 0000 0000 0000 0000 0000 0000 0000 0000
00000280: 0000 0000 0000 803f 0000 0000 0000 0000
00000290: 0000 803f 0000 803f 0000 0000 0000 0000
000002a0: 0000 0000 0000 0000 0000 0000 0000 0000
000002b0: 0000 0000 0000 0000 0000 0000 0000 0000
000002c0: 0000 0000 0000 0000 0000 803f 0000 0000
000002d0: 0000 803f 0000 803f 0000 0000 0000 0000
000002e0: 0000 0000 0000 0000 0000 0000 0000 0000
000002f0: 0000 0000 0000 0000 0000 0000 0000 0000
00000300: 0000 0000 0000 0000 0000 803f 0000 0000
00000310: 0000 803f 0000 0000 0000 803f 0000 0000
00000320: 0000 0000 0000 0000 0000 0000 0000 0000
00000330: 0000 0000 0000 0000 0000 0000 0000 0000
00000340: 0000 0000 0000 0000 0000 803f 0000 0000
00000350: 0000 0000 0000 803f 0000 803f 0000 0000
00000360: 0000 0000 0000 0000 0000 0000 0000 0000
00000370: 0000 0000 0000 0000 0000 0000 0000 0000
00000380: 0000 0000 0000 0000 0000 803f 0000 0000
00000390: 0000 0000 0000 803f 0000 803f 0000 0000
000003a0: 0000 0000 0000 0000 0000 0000 0000 0000
000003b0: 0000 0000 0000 0000 0000 0000 0000 0000
000003c0: 0000 0000 0000 803f 0000 0000 0000 0000
000003d0: 0000 0000 0000 803f 0000 803f 0000 0000
000003e0: 0000 0000 0000 0000 0000 0000 0000 0000
000003f0: 0000 0000 0000 0000 0000 0000 0000 0000

model.rnn_cell.sensory_sparsity_mask f4 [2, 16]
0.0 0.0 0.0 0.0 0.0 0.0 0.0 0.0
0.0 1.0 1.0 1.0 1.0 0.0 1.0 1.0
0.0 0.0 0.0 0.0 0.0 0.0 0.0 1.0
1.0 0.0 1.0 0.0 0.0 1.0 0.0 1.0
00000000: 0000 0000 0000 0000 0000 0000 0000 0000
00000010: 0000 0000 0000 0000 0000 0000 0000 0000
00000020: 0000 0000 0000 803f 0000 803f 0000 803f
00000030: 0000 803f 0000 0000 0000 803f 0000 803f
00000040: 0000 0000 0000 0000 0000 0000 0000 0000
00000050: 0000 0000 0000 0000 0000 0000 0000 803f
00000060: 0000 803f 0000 0000 0000 803f 0000 0000
00000070: 0000 0000 0000 803f 0000 0000 0000 803f

model.rnn_cell.input_w f4 [2]
1.1140777 1.0482646
00000000: 199a 8e3f 892d 863f

model.rnn_cell.input_b f4 [2]
0.1753261 0.019700633
00000000: af88 333e 3963 a13c

exp_avg f4 [16]
0.025616886 0.005829748 0.007076738 4.5479617e-05 0.0023040758 3.429759e-05 0.0043628155 0.0008195341
0.0012424189 0.0045957407 0.0029934125 0.0056023453 0.00030829737 0.00027229707 0.0025908328 0.0025190786
00000000: 81da d13c 7907 bf3b fbe3 e73b 5ec1 3e38
00000010: faff 163b c2da 0f38 f3f5 8e3b 01d6 563a
00000020: a9d8 a23a de97 963b 212d 443b e193 b73b
00000030: f9a2 a139 18c3 8e39 f6ca 293b 2017 253b

exp_avg_sq f4 [16]
4.8421676e-05 6.493282e-06 9.883372e-06 3.8523967e-06 6.981464e-07 9.095201e-08 6.6419616e-06 2.3493794e-07
5.4412685e-06 1.2550114e-06 1.2198608e-06 4.258707e-06 4.7543318e-07 6.797004e-09 1.5589771e-06 4.119182e-06
00000000: 6118 4b38 dee0 d936 c2d0 2537 d643 8136
00000010: 4168 3b35 6551 c333 04de de36 4043 7c34
00000020: 2494 b636 dd71 a835 19ba a335 04e6 8e36
00000030: 0a3f ff34 148b e931 0c3e d135 8137 8a36

exp_avg f4 [16]
-0.007024904 0.014481997 0.008097081 0.007048763 0.007262721 -0.0020041252 0.0028402917 0.017408237
-0.003495824 0.0018439472 0.0069629718 0.010763044 0.0024828303 -0.0028262604 0.00091249857 0.0059231906
00000000: 2a31 e6bb e645 6d3c 9fa9 043c 4ff9 e63b
00000010: 1ffc ed3b a457 03bb 3024 3a3b b89b 8e3c
00000020: 321a 65bb 9ab0 f13a a429 e43b 7a57 303c
00000030: fbb6 223b c838 39bb be34 6f3a 5317 c23b

exp_avg_sq f4 [16]
0.00012969284 0.000100667356 9.637837e-05 6.9472335e-05 8.715472e-06 1.0074446e-05 6.0313436e-05 4.7537636e-05
7.558087e-05 2.153798e-05 1.2655881e-05 3.2231485e-05 2.393897e-05 2.1146286e-06 1.9012588e-05 5.3476957e-05
00000000: 28fe 0739 601d d338 be1e ca38 adb1 9138
00000010: ab38 1237 6b05 2937 0ff9 7c38 2663 4738
00000020: 2c81 9e38 76ac b437 9854 5437 4b30 0738
00000030: 8cd0 c837 0be9 0d36 397d 9f37 724c 6038

exp_avg f4 [16]
-0.009363196 -0.0027002417 -0.007437904 -0.0007167084 -0.0019059374 0.00015886546 -0.001280703 -0.0012943671
-0.0042762207 -0.0033647062 0.0010443386 -0.005895949 0.000105649924 -3.5306308e-05 -0.0027518529 5.7638514e-05
00000000: 1768 19bc 8af6 30bb a9b9 f3bb 7de1 3bba
00000010: a6d0 f9ba 1f95 2639 43dd a7ba c1a7 a9ba
00000020: 8a1f 8cbb 6782 5cbb 30e2 883a ce32 c1bb
00000030: 5f90 dd38 dc15 14b8 6e58 34bb e2c0 7138

exp_avg_sq f4 [16]
3.1248478e-06 6.633735e-07 1.7443572e-06 1.6353649e-08 1.3120685e-07 1.936961e-09 1.937653e-07 1.4123829e-07
1.5393092e-06 4.3160156e-07 1.7919713e-07 1.0370874e-06 4.4695636e-08 1.2697982e-09 4.3055908e-07 4.1325077e-08
00000000: 7ab4 5136 ae12 3235 a81f ea35 0e7a 8c32
00000010: dde1 0c34 611b 0531 cd0d 5034 49a7 1734
00000020: 439a ce35 deb6 e734 5569 4034 0d32 8b35
00000030: 5ff7 3f33 0d85 ae30 9727 e734 677d 3133

exp_avg f4 [16, 16]
0.0 0.0 0.0 0.0 0.0 0.0 0.0 0.0
0.0 0.0 0.0 0.0 0.0 0.0 0.0 0.0
-0.0038641253 0.0 0.0 0.0 0.0 0.0 0.0 0.0
0.0 0.0 0.0 0.0 0.0 0.0 0.0 0.0
-0.0018404077 0.0 0.0 -4.8208487e-05 0.0 0.0 0.0 0.0
0.0 0.0 0.0 0.0 0.0 0.0 0.0 0.0
-0.00096117466 0.0 0.0 0.0 0.0 0.0 0.0 0.0
0.0 0.0 0.0 0.0 0.0 0.0 0.0 0.0
-0.0012408196 -0.0019631884 0.0 0.0 0.0 0.0 0.00018846258 0.0
0.0 0.0 0.0 0.0 0.0 0.0 0.0 0.0
-3.0286761e-05 0.0 2.4212875e-06 0.0 0.0 0.0 0.0 0.0
0.0 0.0 0.0 0.0 0.0 0.0 0.0 0.0
-0.002887237 0.0 0.0 -6.2854415e-05 0.0009911503 0.0 0.0 0.0
0.0 0.0 0.0 0.0 0.0 0.0 0.0 0.0
0.0 -0.0009112768 -0.00021132255 -0.00054020557 0.0 0.0 0.0 0.0
0.0 0.0 0.0 0.0 0.0 0.0 0.0 0.0
0.0 0.0011207093 0.0 0.0 0.00010658442 0.0 3.736781e-05 0.0
0.0 0.0 0.0 0.0 0.0 0.0 0.0 0.0
0.0 0.0 0.0 -0.000110496134 -0.00024470003 3.6300065e-05 0.0 0.0
0.0 0.0 0.0 0.0 0.0 0.0 0.0 0.0
0.0 -0.0016266874 0.0 0.0 -9.323167e-05 -4.200855e-05 0.0 0.0
0.0 0.0 0.0 0.0 0.0 0.0 0.0 0.0
0.0 0.0 -0.0017736362 0.0 -0.00034913054 -0.00013588509 0.0 0.0
0.0 0.0 0.0 0.0 0.0 0.0 0.0 0.0
0.0 0.0 -0.0007588209 0.0 -0.00027916225 0.0 -7.97744e-05 0.0
0.0 0.0 0.0 0.0 0.0 0.0 0.0 0.0
0.0 0.0 0.00024262673 0.0 0.0 -2.3003851e-05 -6.925e-05 0.0
0.0 0.0 0.0 0.0 0.0 0.0 0.0 0.0
0.0 0.0 -3.597926e-06 0.0 0.0 6.968413e-05 -0.00017136251 0.0
0.0 0.0 0.0 0.0 0.0 0.0 0.0 0.0
0.0 -0.0012962704 0.0 0.0 0.0 0.00012304712 -0.00064967276 0.0
0.0 0.0 0.0 0.0 0.0 0.0 0.0 0.0
00000000: 0000 0000 0000 0000 0000 0000 0000 0000
00000010: 0000 0000 0000 0000 0000 0000 0000 0000
00000020: 0000 0000 0000 0000 0000 0000 0000 0000
00000030: 0000 0000 0000 0000 0000 0000 0000 0000
00000040: 443d 7dbb 0000 0000 0000 0000 0000 0000
00000050: 0000 0000 0000 0000 0000 0000 0000 0000
00000060: 0000 0000 0000 0000 0000 0000 0000 0000
00000070: 0000 0000 0000 0000 0000 0000 0000 0000
00000080: d639 f1ba 0000 0000 0000 0000 7833 4ab8
00000090: 0000 0000 0000 0000 0000 0000 0000 0000
000000a0: 0000 0000 0000 0000 0000 0000 0000 0000
000000b0: 0000 0000 0000 0000 0000 0000 0000 0000
000000c0: 57f7 7bba 0000 0000 0000 0000 0000 0000
000000d0: 0000 0000 0000 0000 0000 0000 0000 0000
000000e0: 0000 0000 0000 0000 0000 0000 0000 0000
000000f0: 0000 0000 0000 0000 0000 0000 0000 0000
00000100: ffa2 a2ba d6a8 00bb 0000 0000 0000 0000
00000110: 0000 0000 0000 0000 0a9e 4539 0000 0000
00000120: 0000 0000 0000 0000 0000 0000 0000 0000
00000130: 0000 0000 0000 0000 0000 0000 0000 0000
00000140: 5310 feb7 0000 0000 677d 2236 0000 0000
00000150: 0000 0000 0000 0000 0000 0000 0000 0000
00000160: 0000 0000 0000 0000 0000 0000 0000 0000
00000170: 0000 0000 0000 0000 0000 0000 0000 0000
00000180: cc37 3dbb 0000 0000 0000 0000 b5d0 83b8
00000190: 7ce9 813a 0000 0000 0000 0000 0000 0000
000001a0: 0000 0000 0000 0000 0000 0000 0000 0000
000001b0: 0000 0000 0000 0000 0000 0000 0000 0000
000001c0: 0000 0000 c0e2 6eba 7796 5db9 959c 0dba
000001d0: 0000 0000 0000 0000 0000 0000 0000 0000
000001e0: 0000 0000 0000 0000 0000 0000 0000 0000
000001f0: 0000 0000 0000 0000 0000 0000 0000 0000
00000200: 0000 0000 c4e4 923a 0000 0000 0000 0000
00000210: 1386 df38 0000 0000 61bb 1c38 0000 0000
00000220: 0000 0000 0000 0000 0000 0000 0000 0000
00000230: 0000 0000 0000 0000 0000 0000 0000 0000
00000240: 0000 0000 0000 0000 0000 0000 29ba e7b8
00000250: 154b 80b9 e640 1838 0000 0000 0000 0000
00000260: 0000 0000 0000 0000 0000 0000 0000 0000
00000270: 0000 0000 0000 0000 0000 0000 0000 0000
00000280: 0000 0000 9236 d5ba 0000 0000 0000 0000
00000290: 5f85 c3b8 5632 30b8 0000 0000 0000 0000
000002a0: 0000 0000 0000 0000 0000 0000 0000 0000
000002b0: 0000 0000 0000 0000 0000 0000 0000 0000
000002c0: 0000 0000 0000 0000 5b79 e8ba 0000 0000
000002d0: 820b b7b9 607c 0eb9 0000 0000 0000 0000
000002e0: 0000 0000 0000 0000 0000 0000 0000 0000
000002f0: 0000 0000 0000 0000 0000 0000 0000 0000
00000300: 0000 0000 0000 0000 9ceb 46ba 0000 0000
00000310: 865c 92b9 0000 0000 8e4c a7b8 0000 0000
00000320: 0000 0000 0000 0000 0000 0000 0000 0000
00000330: 0000 0000 0000 0000 0000 0000 0000 0000
00000340: 0000 0000 0000 0000 9e69 7e39 0000 0000
00000350: 0000 0000 65f8 c0b7 503a 91b8 0000 0000
00000360: 0000 0000 0000 0000 0000 0000 0000 0000
00000370: 0000 0000 0000 0000 0000 0000 0000 0000
00000380: 0000 0000 0000 0000 e673 71b6 0000 0000
00000390: 0000 0000 6223 9238 c6af 33b9 0000 0000
000003a0: 0000 0000 0000 0000 0000 0000 0000 0000
000003b0: 0000 0000 0000 0000 0000 0000 0000 0000
000003c0: 0000 0000 9ee7 a9ba 0000 0000 0000 0000
000003d0: 0000 0000 3606 0139 cd4e 2aba 0000 0000
000003e0: 0000 0000 0000 0000 0000 0000 0000 0000
000003f0: 0000 0000 0000 0000 0000 0000 0000 0000

exp_avg_sq f4 [16, 16]
0.0 0.0 0.0 0.0 0.0 0.0 0.0 0.0
0.0 0.0 0.0 0.0 0.0 0.0 0.0 0.0
1.6949199e-06 0.0 0.0 0.0 0.0 0.0 0.0 0.0
0.0 0.0 0.0 0.0 0.0 0.0 0.0 0.0
7.2113966e-07 0.0 0.0 6.2540155e-09 0.0 0.0 0.0 0.0
0.0 0.0 0.0 0.0 0.0 0.0 0.0 0.0
2.929593e-07 0.0 0.0 0.0 0.0 0.0 0.0 0.0
0.0 0.0 0.0 0.0 0.0 0.0 0.0 0.0
1.4104516e-07 2.7178845e-07 0.0 0.0 0.0 0.0 2.1398317e-07 0.0
0.0 0.0 0.0 0.0 0.0 0.0 0.0 0.0
8.769654e-08 0.0 1.9125267e-08 0.0 0.0 0.0 0.0 0.0
0.0 0.0 0.0 0.0 0.0 0.0 0.0 0.0
1.5362532e-06 0.0 0.0 1.6915996e-08 4.877701e-08 0.0 0.0 0.0
0.0 0.0 0.0 0.0 0.0 0.0 0.0 0.0
0.0 1.7940421e-07 5.8886366e-07 3.311639e-07 0.0 0.0 0.0 0.0
0.0 0.0 0.0 0.0 0.0 0.0 0.0 0.0
0.0 3.8984257e-07 0.0 0.0 2.7309625e-08 0.0 9.837899e-08 0.0
0.0 0.0 0.0 0.0 0.0 0.0 0.0 0.0
0.0 0.0 0.0 1.0274602e-08 1.4683656e-08 3.6940592e-10 0.0 0.0
0.0 0.0 0.0 0.0 0.0 0.0 0.0 0.0
0.0 2.981373e-07 0.0 0.0 8.958949e-09 1.4833201e-08 0.0 0.0
0.0 0.0 0.0 0.0 0.0 0.0 0.0 0.0
0.0 0.0 6.6033397e-07 0.0 1.5814742e-08 5.7274225e-09 0.0 0.0
0.0 0.0 0.0 0.0 0.0 0.0 0.0 0.0
0.0 0.0 1.408552e-07 0.0 1.6361373e-08 0.0 1.5136453e-07 0.0
0.0 0.0 0.0 0.0 0.0 0.0 0.0 0.0
0.0 0.0 1.6633098e-08 0.0 0.0 1.7574504e-09 2.5837018e-08 0.0
0.0 0.0 0.0 0.0 0.0 0.0 0.0 0.0
0.0 0.0 1.2125975e-07 0.0 0.0 2.5989273e-08 1.1797949e-08 0.0
0.0 0.0 0.0 0.0 0.0 0.0 0.0 0.0
0.0 3.6847527e-07 0.0 0.0 0.0 1.0567121e-08 1.05960346e-07 0.0
0.0 0.0 0.0 0.0 0.0 0.0 0.0 0.0
00000000: 0000 0000 0000 0000 0000 0000 0000 0000
00000010: 0000 0000 0000 0000 0000 0000 0000 0000
00000020: 0000 0000 0000 0000 0000 0000 0000 0000
00000030: 0000 0000 0000 0000 0000 0000 0000 0000
00000040: 017d e335 0000 0000 0000 0000 0000 0000
00000050: 0000 0000 0000 0000 0000 0000 0000 0000
00000060: 0000 0000 0000 0000 0000 0000 0000 0000
00000070: 0000 0000 0000 0000 0000 0000 0000 0000
00000080: 5794 4135 0000 0000 0000 0000 e7e2 d631
00000090: 0000 0000 0000 0000 0000 0000 0000 0000
000000a0: 0000 0000 0000 0000 0000 0000 0000 0000
000000b0: 0000 0000 0000 0000 0000 0000 0000 0000
000000c0: 0548 9d34 0000 0000 0000 0000 0000 0000
000000d0: 0000 0000 0000 0000 0000 0000 0000 0000
000000e0: 0000 0000 0000 0000 0000 0000 0000 0000
000000f0: 0000 0000 0000 0000 0000 0000 0000 0000
00000100: 3372 1734 52ea 9134 0000 0000 0000 0000
00000110: 0000 0000 0000 0000 3fc3 6534 0000 0000
00000120: 0000 0000 0000 0000 0000 0000 0000 0000
00000130: 0000 0000 0000 0000 0000 0000 0000 0000
00000140: af53 bc33 0000 0000 e848 a432 0000 0000
00000150: 0000 0000 0000 0000 0000 0000 0000 0000
00000160: 0000 0000 0000 0000 0000 0000 0000 0000
00000170: 0000 0000 0000 0000 0000 0000 0000 0000
00000180: 4231 ce35 0000 0000 0000 0000 ab4e 9132
00000190: e47e 5133 0000 0000 0000 0000 0000 0000
000001a0: 0000 0000 0000 0000 0000 0000 0000 0000
000001b0: 0000 0000 0000 0000 0000 0000 0000 0000
000001c0: 0000 0000 41a2 4034 6712 1e35 d2ca b134
000001d0: 0000 0000 0000 0000 0000 0000 0000 0000
000001e0: 0000 0000 0000 0000 0000 0000 0000 0000
000001f0: 0000 0000 0000 0000 0000 0000 0000 0000
00000200: 0000 0000 8e4b d134 0000 0000 0000 0000
00000210: 8096 ea32 0000 0000 6c44 d333 0000 0000
00000220: 0000 0000 0000 0000 0000 0000 0000 0000
00000230: 0000 0000 0000 0000 0000 0000 0000 0000
00000240: 0000 0000 0000 0000 0000 0000 2d84 3032
00000250: 6743 7c32 4315 cb2f 0000 0000 0000 0000
00000260: 0000 0000 0000 0000 0000 0000 0000 0000
00000270: 0000 0000 0000 0000 0000 0000 0000 0000
00000280: 0000 0000 ae0f a034 0000 0000 0000 0000
00000290: e0e9 1932 1cd5 7e32 0000 0000 0000 0000
000002a0: 0000 0000 0000 0000 0000 0000 0000 0000
000002b0: 0000 0000 0000 0000 0000 0000 0000 0000
000002c0: 0000 0000 0000 0000 ce41 3135 0000 0000
000002d0: fcd8 8732 f1ca c431 0000 0000 0000 0000
000002e0: 0000 0000 0000 0000 0000 0000 0000 0000
000002f0: 0000 0000 0000 0000 0000 0000 0000 0000
00000300: 0000 0000 0000 0000 fc3d 1734 0000 0000
00000310: 0a8b 8c32 0000 0000 c486 2234 0000 0000
00000320: 0000 0000 0000 0000 0000 0000 0000 0000
00000330: 0000 0000 0000 0000 0000 0000 0000 0000
00000340: 0000 0000 0000 0000 92e0 8e32 0000 0000
00000350: 0000 0000 ca8a f130 34f0 dd32 0000 0000
00000360: 0000 0000 0000 0000 0000 0000 0000 0000
00000370: 0000 0000 0000 0000 0000 0000 0000 0000
00000380: 0000 0000 0000 0000 a033 0234 0000 0000
00000390: 0000 0000 043f df32 eeaf 4a32 0000 0000
000003a0: 0000 0000 0000 0000 0000 0000 0000 0000
000003b0: 0000 0000 0000 0000 0000 0000 0000 0000
000003c0: 0000 0000 dbd2 c534 0000 0000 0000 0000
000003d0: 0000 0000 b18a 3532 518c e333 0000 0000
000003e0: 0000 0000 0000 0000 0000 0000 0000 0000
000003f0: 0000 0000 0000 0000 0000 0000 0000 0000

exp_avg f4 [16, 16]
0.0 0.0 0.0 0.0 0.0 0.0 0.0 0.0
0.0 0.0 0.0 0.0 0.0 0.0 0.0 0.0
0.012912594 0.0 0.0 0.0 0.0 0.0 0.0 0.0
0.0 0.0 0.0 0.0 0.0 0.0 0.0 0.0
-0.01715842 0.0 0.0 0.004807877 0.0 0.0 0.0 0.0
0.0 0.0 0.0 0.0 0.0 0.0 0.0 0.0
-0.009449205 0.0 0.0 0.0 0.0 0.0 0.0 0.0
0.0 0.0 0.0 0.0 0.0 0.0 0.0 0.0
-0.019294279 0.004355328 0.0 0.0 0.0 0.0 0.0064937677 0.0
0.0 0.0 0.0 0.0 0.0 0.0 0.0 0.0
0.00023128313 0.0 -3.9633003e-05 0.0 0.0 0.0 0.0 0.0
0.0 0.0 0.0 0.0 0.0 0.0 0.0 0.0
-0.010845341 0.0 0.0 -0.004500885 0.013037342 0.0 0.0 0.0
0.0 0.0 0.0 0.0 0.0 0.0 0.0 0.0
0.0 -0.007581716 -0.003773395 -0.002787052 0.0 0.0 0.0 0.0
0.0 0.0 0.0 0.0 0.0 0.0 0.0 0.0
0.0 -0.0041507795 0.0 0.0 -0.001962751 0.0 0.0029097344 0.0
0.0 0.0 0.0 0.0 0.0 0.0 0.0 0.0
0.0 0.0 0.0 -0.000925048 -0.0029904228 0.0005464594 0.0 0.0
0.0 0.0 0.0 0.0 0.0 0.0 0.0 0.0
0.0 -0.0037847592 0.0 0.0 0.0008789656 0.0018386873 0.0 0.0
0.0 0.0 0.0 0.0 0.0 0.0 0.0 0.0
0.0 0.0 -0.0052773952 0.0 -0.008243895 -0.00081448053 0.0 0.0
0.0 0.0 0.0 0.0 0.0 0.0 0.0 0.0
0.0 0.0 -0.005175722 0.0 -0.0016097 0.0 0.0022651623 0.0
0.0 0.0 0.0 0.0 0.0 0.0 0.0 0.0
0.0 0.0 0.0023690434 0.0 0.0 -0.00025519394 -0.00036281033 0.0
0.0 0.0 0.0 0.0 0.0 0.0 0.0 0.0
0.0 0.0 0.005869185 0.0 0.0 -0.00013870014 -0.00461726 0.0
0.0 0.0 0.0 0.0 0.0 0.0 0.0 0.0
0.0 0.00036019008 0.0 0.0 0.0 4.3432883e-05 -0.0062269513 0.0
0.0 0.0 0.0 0.0 0.0 0.0 0.0 0.0
00000000: 0000 0000 0000 0000 0000 0000 0000 0000
00000010: 0000 0000 0000 0000 0000 0000 0000 0000
00000020: 0000 0000 0000 0000 0000 0000 0000 0000
00000030: 0000 0000 0000 0000 0000 0000 0000 0000
00000040: 588f 533c 0000 0000 0000 0000 0000 0000
00000050: 0000 0000 0000 0000 0000 0000 0000 0000
00000060: 0000 0000 0000 0000 0000 0000 0000 0000
00000070: 0000 0000 0000 0000 0000 0000 0000 0000
00000080: d18f 8cbc 0000 0000 0000 0000 658b 9d3b
00000090: 0000 0000 0000 0000 0000 0000 0000 0000
000000a0: 0000 0000 0000 0000 0000 0000 0000 0000
000000b0: 0000 0000 0000 0000 0000 0000 0000 0000
000000c0: d7d0 1abc 0000 0000 0000 0000 0000 0000
000000d0: 0000 0000 0000 0000 0000 0000 0000 0000
000000e0: 0000 0000 0000 0000 0000 0000 0000 0000
000000f0: 0000 0000 0000 0000 0000 0000 0000 0000
00000100: 090f 9ebc 24b7 8e3b 0000 0000 0000 0000
00000110: 0000 0000 0000 0000 acc9 d43b 0000 0000
00000120: 0000 0000 0000 0000 0000 0000 0000 0000
00000130: 0000 0000 0000 0000 0000 0000 0000 0000
00000140: 9884 7239 0000 0000 9d3b 26b8 0000 0000
00000150: 0000 0000 0000 0000 0000 0000 0000 0000
00000160: 0000 0000 0000 0000 0000 0000 0000 0000
00000170: 0000 0000 0000 0000 0000 0000 0000 0000
00000180: a8b0 31bc 0000 0000 0000 0000 297c 93bb
00000190: 939a 553c 0000 0000 0000 0000 0000 0000
000001a0: 0000 0000 0000 0000 0000 0000 0000 0000
000001b0: 0000 0000 0000 0000 0000 0000 0000 0000
000001c0: 0000 0000 0b70 f8bb 104b 77bb f9a6 36bb
000001d0: 0000 0000 0000 0000 0000 0000 0000 0000
000001e0: 0000 0000 0000 0000 0000 0000 0000 0000
000001f0: 0000 0000 0000 0000 0000 0000 0000 0000
00000200: 0000 0000 4303 88bb 0000 0000 0000 0000
00000210: 7fa1 00bb 0000 0000 3eb1 3e3b 0000 0000
00000220: 0000 0000 0000 0000 0000 0000 0000 0000
00000230: 0000 0000 0000 0000 0000 0000 0000 0000
00000240: 0000 0000 0000 0000 0000 0000 ec7e 72ba
00000250: f8fa 43bb 4540 0f3a 0000 0000 0000 0000
00000260: 0000 0000 0000 0000 0000 0000 0000 0000
00000270: 0000 0000 0000 0000 0000 0000 0000 0000
00000280: 0000 0000 b909 78bb 0000 0000 0000 0000
00000290: 626a 663a 1c00 f13a 0000 0000 0000 0000
000002a0: 0000 0000 0000 0000 0000 0000 0000 0000
000002b0: 0000 0000 0000 0000 0000 0000 0000 0000
000002c0: 0000 0000 0000 0000 00ee acbb 0000 0000
000002d0: 6711 07bc dd82 55ba 0000 0000 0000 0000
000002e0: 0000 0000 0000 0000 0000 0000 0000 0000
000002f0: 0000 0000 0000 0000 0000 0000 0000 0000
00000300: 0000 0000 0000 0000 1a99 a9bb 0000 0000
00000310: 92fc d2ba 0000 0000 1e73 143b 0000 0000
00000320: 0000 0000 0000 0000 0000 0000 0000 0000
00000330: 0000 0000 0000 0000 0000 0000 0000 0000
00000340: 0000 0000 0000 0000 f441 1b3b 0000 0000
00000350: 0000 0000 8dcb 85b9 9437 beb9 0000 0000
00000360: 0000 0000 0000 0000 0000 0000 0000 0000
00000370: 0000 0000 0000 0000 0000 0000 0000 0000
00000380: 0000 0000 0000 0000 4b52 c03b 0000 0000
00000390: 0000 0000 0970 11b9 624c 97bb 0000 0000
000003a0: 0000 0000 0000 0000 0000 0000 0000 0000
000003b0: 0000 0000 0000 0000 0000 0000 0000 0000
000003c0: 0000 0000 e5d7 bc39 0000 0000 0000 0000
000003d0: 0000 0000 b42b 3638 740b ccbb 0000 0000
000003e0: 0000 0000 0000 0000 0000 0000 0000 0000
000003f0: 0000 0000 0000 0000 0000 0000 0000 0000
